checkpoint/minta_pretrained_gravel_embed.pt (torch, 70213 bytes, 39 tensors)

0 f4 [16, 64]
0	0x3d624d9e	0.055249803
1	0xbdd110dd	-0.102082945
2	0x3d7db72b	0.06194226
3	0x3c115070	0.008869275
4	0xbc91e87b	-0.01781105
5	0xbbd4e698	-0.0064972155
6	0x3d9943f9	0.07483668
7	0xbddb4460	-0.10706401
8	0xbdf416f5	-0.11918441
9	0xbdacb95e	-0.084337935
10	0x3ce2bed6	0.027678888
11	0xbc155bac	-0.009116095
12	0xbd767ed7	-0.060179558
13	0x3d1fff70	0.039061964
14	0xbdd2f8b3	-0.10301342
15	0x3e1341cd	0.1438057
16	0x3d802098	0.06256217
17	0x3dd26b6d	0.10274396
18	0x3d8fc2d6	0.07019584
19	0x3cfc210c	0.030777477
20	0x3d8a6b66	0.06758766
21	0x3d3d4318	0.046206564
22	0x3d47ac85	0.04874851
23	0xbd13870c	-0.036017463
24	0xbd8aa1b6	-0.06769125
25	0x3cbb3257	0.022851152
26	0x3da342de	0.07971738
27	0x3d062c5c	0.03275715
28	0x3d82c027	0.063843064
29	0x3cf20326	0.029542517
30	0x3be5f616	0.007017861
31	0x3c27de22	0.010245832
32	0xbb529776	-0.0032133735
33	0x3df80aac	0.121114105
34	0xbd094037	-0.033508506
35	0xbdc0830a	-0.09399994
36	0x3da7fdba	0.082026914
37	0xbc2098c5	-0.009802048
38	0xbcd13c9c	-0.025541596
39	0xbbda6e02	-0.006665946
40	0x3bdcd1f0	0.0067388937
41	0x3c4c0010	0.012451187
42	0xbad12e85	-0.0015959298
43	0xbd6e7adb	-0.058222633
44	0xbd046547	-0.032323148
45	0x3df05ef4	0.11736861
46	0x3e13ff39	0.14452828
47	0x3c1609ca	0.009157607
48	0x3b866d63	0.0041023954
49	0xbacab538	-0.0015465384
50	0x3cb812af	0.022469847
51	0x3d21da51	0.039514843
52	0xbc8cc667	-0.01718445
53	0x3dc22390	0.09479439
54	0xbd83421e	-0.06409095
55	0xbd0612f5	-0.032732923
56	0x3c99dfea	0.018783528
57	0xbc8f991e	-0.017529067
58	0x3d4779a0	0.048699975
59	0x3da95a38	0.08269161
60	0xbdada972	-0.08479585
61	0x3d70fd04	0.058835045
62	0x3cf4e32d	0.029893482
63	0x3d081531	0.033223335
64	0xbd6cec9d	-0.05784284
65	0xbe05c3ee	-0.13063022
66	0x3d149689	0.036276374
67	0xbd423ea7	-0.04742303
68	0xbbb4be3b	-0.0055158413
69	0xbd8a9250	-0.06766188
70	0x3d28db1a	0.041224577
71	0xbd78d651	-0.060751263
72	0xbcc70864	-0.024295993
73	0x3bbf7842	0.0058431933
74	0x3d83d760	0.06437564
75	0x3d7d921f	0.06190693
76	0xbd81b725	-0.0633376
77	0x3d09f683	0.033682358
78	0x3d9cad4c	0.07650241
79	0x3d073a2d	0.033014465
80	0x3d6b554d	0.057454396
81	0xbd8f26bb	-0.06989809
82	0x3dc31d9d	0.09527133
83	0x3d04ad9a	0.03239212
84	0x3cc3d379	0.023904549
85	0xbcc92714	-0.024554767
86	0xbcf50e41	-0.029914023
87	0x3d9271cc	0.07150611
88	0xbddd1ecc	-0.1079689
89	0x3d1d62b5	0.038424212
90	0x3d483316	0.048876844
91	0x3dbae68b	0.09126004
92	0xbc829dd3	-0.015944397
93	0x3ca32869	0.01991673
94	0x3d9ead51	0.07747901
95	0x3b849145	0.004045638
96	0xbb30a0a7	-0.0026951225
97	0xbc7000d1	-0.014648632
98	0x3da35f02	0.07977106
99	0x3cf81ce8	0.030287221
100	0xbc4d6c52	-0.012538033
101	0x3b9d9484	0.004808964
102	0xbc33845b	-0.010956849
103	0xbd3a04e7	-0.04541483
104	0x3da2e4ca	0.07953794
105	0xbc9de3ca	-0.019273657
106	0x3d4f1f9d	0.05056726
107	0xbd91d816	-0.07121293
108	0x3d9fefd6	0.07809417
109	0x3c4a5fef	0.012351974
110	0x3d3bc4f3	0.045842122
111	0x3d1b6d99	0.037946317
112	0xbc4801bc	-0.012207445
113	0x3c22e3fb	0.00994205
114	0x3d5244e6	0.051335238
115	0xbce299c9	-0.027661221
116	0x3c6935ea	0.0142340455
117	0xbd35f528	-0.044423252
118	0x3d0dccb7	0.03461906
119	0x3c82ac62	0.01595134
120	0x3e01e946	0.12686643
121	0x3c904184	0.017609365
122	0xbca5d45a	-0.020242859
123	0x3e0070ad	0.12542982
124	0xbb8cfdbe	-0.0043027094
125	0x3cd7af54	0.02632872
126	0xbd74d3e7	-0.0597724
127	0xbcfe9d69	-0.031080918
128	0x3ddc844a	0.1076742
129	0xbd47a80d	-0.04874425
130	0x3cc95d9d	0.024580771
131	0x3d24e06c	0.040253088
132	0x3d0cf955	0.03441747
133	0xbcaaf4c2	-0.020868663
134	0x3d2e57db	0.042564254
135	0xbd5978a9	-0.053093586
136	0xbc277f37	-0.0102232015
137	0x3b6a686c	0.0035767807
138	0x3a1e966f	0.0006049638
139	0x3c3fb35e	0.011700479
140	0xbdd841ff	-0.10559463
141	0xbcbb2b02	-0.022847656
142	0xbd95a704	-0.07307246
143	0x3da8fff7	0.082519464
144	0x3d879ce7	0.066217236
145	0xbda8b837	-0.08238261
146	0x3db0d6fc	0.08634755
147	0x3d1bf06a	0.038071074
148	0x3c76c244	0.015060965
149	0xbd2e7401	-0.0425911
150	0xbcc2ac32	-0.02376375
151	0xbb053ee1	-0.0020331668
152	0xbcdf36f0	-0.027247876
153	0xbcb0a7e2	-0.021564428
154	0xbd75a452	-0.05997116
155	0x3c0efaea	0.008726815
156	0x3df9baa9	0.12193806
157	0xbdb54327	-0.08850699
158	0xbd5aaa19	-0.053384874
159	0xbc802e15	-0.015646974
160	0x3c9ee9d0	0.0193986
161	0xbc7cd89e	-0.015432505
162	0xbd48fe6d	-0.049070764
163	0xbd3d45c4	-0.04620911
164	0x3c181557	0.009282432
165	0xbd4c9bad	-0.04995315
166	0xbd40a875	-0.047035653
167	0x3c188197	0.00930824
168	0x3ce2841d	0.027650887
169	0x3d32b9e7	0.04363432
170	0xbdc550a7	-0.09634524
171	0xbd79e3ec	-0.06100838
172	0xbd09af60	-0.033614516
173	0x3c1415d4	0.009038407
174	0x3daf94de	0.08573316
175	0x3da2213a	0.07916494
176	0xba9efe54	-0.0012130239
177	0xbba12cdc	-0.0049186777
178	0x3e045ac7	0.12925254
179	0x3dab7b90	0.08373177
180	0xbd0513c9	-0.03248957
181	0xbd86af6f	-0.0657643
182	0x3ca691f1	0.020333262
183	0x3d3ad253	0.045610737
184	0xbd5eaba7	-0.05436292
185	0xbd183399	-0.037158582
186	0xbda44773	-0.0802144
187	0xbd2769de	-0.040872447
188	0xbd78b475	-0.060718972
189	0x3d97d831	0.07414282
190	0xbd306d1f	-0.043072816
191	0x3d5356fc	0.051596627
192	0xbd00ca41	-0.031442884
193	0x3cb35a2a	0.02189358
194	0xbd09ad1b	-0.033612352
195	0x3d33bcbf	0.043881174
196	0x3c8ec65e	0.017428573
197	0x3d5d556e	0.05403655
198	0x3cefbb4a	0.029264111
199	0xbc04dce6	-0.008109307
200	0xbd87028c	-0.06592283
201	0x3aee07f8	0.0018160334
202	0x3c40bf37	0.011764339
203	0x3d1c9e09	0.03823665
204	0x3de4ea41	0.11177493
205	0xbdc1eedf	-0.09469389
206	0x3ca60030	0.020263761
207	0xbe13595b	-0.14389555
208	0x3cfb4f9d	0.030677611
209	0x3bd87d92	0.006606766
210	0x3d31d71e	0.043418042
211	0x3ca697ab	0.020335993
212	0x3d6046c9	0.054755006
213	0xbd35c91c	-0.044381246
214	0x3dc69bcd	0.096976854
215	0x3de86370	0.11347091
216	0xbd3cdbff	-0.046108242
217	0xbe35bf5c	-0.17748779
218	0x3d848c31	0.06472052
219	0x3cbad9af	0.022808878
220	0xbd8b7475	-0.06809322
221	0x3cd25967	0.025677396
222	0xbd6a6d82	-0.05723334
223	0xbc17b026	-0.009258306
224	0x3d8f7585	0.07004837
225	0xbd976d29	-0.073938675
226	0xbd7c2011	-0.06155402
227	0xbca111ef	-0.019661872
228	0x3b9bd0b4	0.004755104
229	0xbd359cd0	-0.044339
230	0x3d5c577c	0.05379437
231	0x3c8c26d6	0.017108362
232	0xbd0a2b17	-0.0337325
233	0x3d027a98	0.031855196
234	0x3dc2f784	0.09519866
235	0x3c1fa1b9	0.0097431475
236	0x3d12d329	0.03584591
237	0xbd475900	-0.04866886
238	0x3c1cf8d7	0.009580812
239	0x3c20510f	0.009784951
240	0x3d476402	0.04867936
241	0xbd3c33ed	-0.045947958
242	0x3dba4494	0.090951115
243	0x3ca9997a	0.020703066
244	0x3dd71687	0.105023436
245	0x3cb8c266	0.022553634
246	0x3d2e3ba8	0.04253736
247	0xbdd8102f	-0.10549962
248	0x3d5f36cb	0.054495614
249	0xbc97494d	-0.01846757
250	0x3c8e8a84	0.017400034
251	0x3daa2483	0.08307745
252	0xbd635a21	-0.055505875
253	0x3c4fe8f2	0.012689816
254	0x3d64b6e6	0.055838488
255	0xbd32d66b	-0.043661516

1 f4 [16, 64]
0	0x3c8aaed3	0.016929066
1	0x3e6ce896	0.231356
2	0xbf0ff0c1	-0.56226736
3	0x3e24b5c8	0.16084969
4	0x3deadc07	0.11467748
5	0x3e95ce90	0.29259157
6	0x3eb74f50	0.35802698
7	0x3e1a0932	0.1504257
8	0xbe27da70	-0.16391921
9	0xbe6f675a	-0.23379269
10	0x3c83731f	0.016046105
11	0xbec43c6e	-0.38327354
12	0xbe1f7892	-0.15573338
13	0xbd7043bb	-0.058658343
14	0x3e21f443	0.15815835
15	0xbe5f2b70	-0.21793914
16	0xbe8ca90d	-0.27472726
17	0xbeb3f78a	-0.35149795
18	0x3db32ee1	0.08749176
19	0x3edeaf9e	0.4349336
20	0xbe6719dc	-0.22568458
21	0xbeb4bdee	-0.35301155
22	0xbe2f0b62	-0.17094186
23	0x3ec57ebc	0.38573253
24	0x3e0176d8	0.12642992
25	0x3ec4b137	0.38416454
26	0x3d1dbcf4	0.038510278
27	0xbebdc8db	-0.37067303
28	0xbe82b57f	-0.25529096
29	0x3e709e26	0.23497829
30	0xbe9ab826	-0.3021862
31	0xbd8e06ec	-0.06934914
32	0x3e596083	0.21228223
33	0x3e504e9b	0.20342486
34	0xbe0114ea	-0.12605634
35	0x3ebb5b9c	0.3659333
36	0x3db1e6aa	0.08686574
37	0x3e8bbdf6	0.27293366
38	0xbeac2adc	-0.3362645
39	0xbe9372a3	-0.28798398
40	0xbeac7e0a	-0.3368991
41	0xbcf4e039	-0.029892074
42	0xbd8c9ef0	-0.068662524
43	0xbe99983f	-0.29998967
44	0x3eb81ca8	0.35959363
45	0xbe111d14	-0.14171249
46	0x3eb21926	0.34784812
47	0x3dc63559	0.09678144
48	0xbdc6198c	-0.096728414
49	0xbeb501de	-0.35352987
50	0xbc7bd48c	-0.015370499
51	0xbe9c7966	-0.3056137
52	0xbeeaee79	-0.45885065
53	0x3ec1bc14	0.37838805
54	0xbe4ee946	-0.20206174
55	0x3dc02923	0.09382846
56	0x3ea586b6	0.3232934
57	0xbe8f00b2	-0.27930218
58	0xbe141d98	-0.14464414
59	0xbdb98ec1	-0.09060431
60	0xbec94ad1	-0.39314893
61	0x3e77de72	0.2420595
62	0x3d4692c9	0.04847983
63	0x3eb5fb4e	0.35543293
64	0xbe65347b	-0.22383301
65	0x3e77f39a	0.2421402
66	0x3e494439	0.19654931
67	0xbdf8deed	-0.12151895
68	0x3e8b48ec	0.27204072
69	0x3e9c6b3e	0.3055057
70	0x3ed917b9	0.4240091
71	0xbed48fdd	-0.4151601
72	0x3eb7c68f	0.35893676
73	0x3d406d65	0.046979327
74	0xbed82b7b	-0.42220673
75	0xbe3d5168	-0.18488085
76	0x3e0b95cf	0.13631366
77	0x3b8900f8	0.0041810237
78	0xbe50df59	-0.203977
79	0xbe8646c1	-0.26225856
80	0x3d67a8e8	0.056557566
81	0xbde0e3db	-0.1098096
82	0xbd372439	-0.04471228
83	0xbe2db2f6	-0.169628
84	0x3e06c82c	0.13162297
85	0x3e985d82	0.2975884
86	0x3e8c6ef3	0.27428398
87	0xbce8b25c	-0.02840536
88	0x3d63262f	0.055456337
89	0x3e453027	0.1925665
90	0xbe4be596	-0.19911799
91	0xbe429a2b	-0.19004123
92	0x3e0554d9	0.13020648
93	0xbe07c06c	-0.13256997
94	0xbc7119b6	-0.014715603
95	0xbc22e286	-0.009941703
96	0x3e99547a	0.29947263
97	0xbbe2a613	-0.0069167702
98	0x3e7c773e	0.24654862
99	0xbd6d23be	-0.057895415
100	0x3eb8c973	0.36091194
101	0x3d9ad88e	0.07560836
102	0x3d8bc945	0.068254985
103	0xbeb5cd5c	-0.3550824
104	0x3e64aadd	0.22330804
105	0x3d3dd2b6	0.046343528
106	0xbe24feb9	-0.16112794
107	0xbe3fd527	-0.18733655
108	0x3d9d2175	0.07672397
109	0x3eb9b120	0.36267948
110	0x3de3fc9f	0.11132168
111	0x3e39e5f1	0.18154122
112	0xbcffc064	-0.031219669
113	0xbe025b8e	-0.12730238
114	0x3ea6f6bd	0.3261012
115	0xbe5c527e	-0.21515843
116	0xbeaed658	-0.34147906
117	0xbe436049	-0.19079699
118	0x3e1d8c64	0.15385586
119	0xbd2f4c9b	-0.042797666
120	0xbe84b9b8	-0.25922942
121	0xbe127709	-0.14303221
122	0x3e942056	0.2893092
123	0x3eaa6f5a	0.3328808
124	0xbdfb951d	-0.122843005
125	0xbc9c703f	-0.019096492
126	0xbe77285b	-0.24136488
127	0xbdcb8e80	-0.09939289
128	0xbd94e88c	-0.07270917
129	0x3d56e3d5	0.05246337
130	0x3e464f66	0.19366226
131	0x3e9618f6	0.2931592
132	0xbe05bfee	-0.13061497
133	0x3ee4a5ff	0.44657895
134	0x3cdca577	0.026934369
135	0x3e81a9d5	0.25324884
136	0x3ec8a636	0.3918931
137	0x3e2a9f3b	0.16662304
138	0xbe511eec	-0.20421952
139	0xbe34eb00	-0.1766777
140	0xbe30ba5c	-0.1725859
141	0x3e300c96	0.17192301
142	0x3e8b98c6	0.27264994
143	0xbe31f145	-0.17377193
144	0x3ec5af5b	0.38610348
145	0xbdb4e28e	-0.088322744
146	0xbed00331	-0.40627435
147	0x3e9204b8	0.28519225
148	0xbb0ec68e	-0.0021785828
149	0x3c545cb5	0.012961556
150	0x3e57d58f	0.2107756
151	0xbe98dbf8	-0.29855323
152	0xbe7e612c	-0.24841756
153	0xbe643097	-0.2228416
154	0xbdfa6047	-0.12225395
155	0x3e93b4c3	0.28848848
156	0xbdae52f8	-0.08511919
157	0xbe366a4c	-0.17813987
158	0xbcda43bd	-0.026643628
159	0xbdfa04f0	-0.12207973
160	0xbb9f6384	-0.004864158
161	0x3ee9a659	0.45634726
162	0xbc47b8bf	-0.012190043
163	0xbedfa162	-0.43677813
164	0xbea42d5a	-0.3206585
165	0x3e4a6efb	0.19768898
166	0xbe2fecdc	-0.17180198
167	0xbed088b0	-0.40729284
168	0x3e1b8503	0.15187459
169	0xbe0bfbf3	-0.1367033
170	0x3e0f24c6	0.13978872
171	0xbe96fc5a	-0.29489404
172	0x3f01cfa4	0.5070746
173	0x3def9317	0.11697977
174	0xbea1cf8f	-0.31603667
175	0x3e4006be	0.18752572
176	0xbccdec74	-0.025137164
177	0x3e226374	0.15858251
178	0x3e10f54e	0.14156076
179	0xbe53542b	-0.20637576
180	0x3c87d7e6	0.01658244
181	0x3d663a49	0.05620793
182	0xbe925008	-0.28576684
183	0x3e869b08	0.26290154
184	0x3e98126a	0.2970155
185	0xbe30f8b8	-0.17282379
186	0xbea53b55	-0.3227183
187	0xbea7d713	-0.32781276
188	0xbe2614fa	-0.1621894
189	0xbd604ecc	-0.054762647
190	0x3e5eac46	0.21745405
191	0xbea7b07e	-0.3275184
192	0x3e1dc580	0.15407372
193	0x3db2c58f	0.087290876
194	0x3e8b4238	0.27198958
195	0x3e2a296c	0.16617364
196	0x3e82b052	0.25525147
197	0xbdeba938	-0.11506885
198	0x3e61297f	0.21988486
199	0xbe31b343	-0.17353539
200	0xbe52281d	-0.20523115
201	0x3e853c2c	0.2602247
202	0xbe94d550	-0.29068995
203	0x3ea1a45c	0.3157071
204	0x3b1ebf22	0.002422281
205	0xbe593556	-0.21211752
206	0x3eab342f	0.3343825
207	0xbc8419ee	-0.016125645
208	0x3dc41194	0.09573665
209	0xbee5019a	-0.44727784
210	0xbe08dc7e	-0.13365361
211	0xbe3ba7b1	-0.18325688
212	0x3c7695b8	0.015050344
213	0x3e6505bf	0.22365473
214	0x3e900015	0.28125063
215	0xbeba2a1d	-0.36360255
216	0x3f0566b2	0.52109826
217	0xbe659fdf	-0.22424267
218	0x3cfdb650	0.030970722
219	0xbdcab95e	-0.09898637
220	0x3dd308a4	0.103043824
221	0x3dd0e73a	0.10200353
222	0x3e454067	0.19262849
223	0xbdfd1512	-0.123575345
224	0xbf0ae451	-0.54254633
225	0xbe5de0fe	-0.21667859
226	0xbd5ef1ad	-0.0544297
227	0xbd565bdc	-0.052333698
228	0xbdca1625	-0.09867505
229	0xbead93a7	-0.33901712
230	0x3e4b27b0	0.19839358
231	0x3e880fe6	0.2657463
232	0x3e862ae8	0.2620461
233	0x3eea95a1	0.45817283
234	0xbe07f06b	-0.13275306
235	0xbe3c7a30	-0.18405986
236	0x3e2db465	0.16963346
237	0x3ec1a110	0.37818193
238	0x3e7674da	0.24068013
239	0x3e94bb2f	0.2904906
240	0x3eb329cf	0.34992835
241	0x3c84b373	0.01619885
242	0x3e22b063	0.15887599
243	0x3e3b33ee	0.18281528
244	0x3eb59f7d	0.35473242
245	0x3e809fb9	0.2512186
246	0x3cfec83a	0.031101335
247	0xbe9e66ff	-0.30937955
248	0xbc7cb39a	-0.01542368
249	0x3ead1759	0.33806875
250	0xbeb12be0	-0.34603786
251	0x3e830471	0.25589326
252	0x3df2db4b	0.11858233
253	0xbed5d031	-0.417604
254	0xbcea85eb	-0.02862831
255	0x3e9d5439	0.3072832

2 f4 [16, 64]
0	0xbe3a7bf6	-0.1821135
1	0xbd94172e	-0.07230984
2	0x3ebfd311	0.37465718
3	0xbe7db2f9	-0.24775304
4	0xbe428b9d	-0.1899857
5	0xbc9a1b3e	-0.018811818
6	0x3e2325e6	0.15932426
7	0x3e822a6f	0.25423
8	0xbd85d55a	-0.06534834
9	0xbea47d35	-0.32126775
10	0xbd8ca521	-0.06867433
11	0xbcc66b76	-0.024221163
12	0x3e48ddaa	0.19615808
13	0x3d16ab71	0.036784593
14	0x3d8f608c	0.07000837
15	0x3cc35d11	0.023848088
16	0x3cbd483d	0.023105735
17	0xbe225e88	-0.15856373
18	0xbe50a502	-0.20375445
19	0x3d49e58d	0.049291182
20	0x3dd8806f	0.10571372
21	0xbdc9a84e	-0.09846555
22	0xbe21f0fc	-0.15814584
23	0xbe8c1558	-0.27360034
24	0x3ddf582d	0.1090549
25	0xbd34c7f8	-0.044136018
26	0xbe2af42f	-0.16694711
27	0xbe1f1b90	-0.15537858
28	0x3c42bf33	0.011886406
29	0xbabfb1b9	-0.0014625109
30	0x3dc6cc12	0.09706892
31	0xbe67a4d7	-0.22621475
32	0x3df73784	0.12071136
33	0x3e3c280f	0.18374656
34	0x3db9234c	0.090399355
35	0xbcfbb03b	-0.030723682
36	0xbcfafaaf	-0.030637113
37	0xbe064af0	-0.13114524
38	0x3d9bbb31	0.07604063
39	0xbdbf1c99	-0.093316264
40	0xbe97e298	-0.29665065
41	0xbd9ced4d	-0.07662449
42	0xbdf1f5af	-0.118144386
43	0xbdc9bbcd	-0.09850273
44	0x3e541111	0.20709635
45	0x3dc581dd	0.0964391
46	0xbed89f2e	-0.42308944
47	0x3d72c257	0.05926737
48	0x39dfe34c	0.00042703224
49	0x3dadc52c	0.08484873
50	0x3c1b2cd5	0.009471138
51	0xbda8c517	-0.08240717
52	0x3cfb1dcf	0.030653862
53	0x3c43a220	0.011940509
54	0xbd2cde66	-0.042204283
55	0x3d45d598	0.048299402
56	0x3da5c256	0.08093707
57	0xbe6340e2	-0.2219272
58	0x3bf67b2d	0.007522008
59	0x3dd4eed2	0.10397114
60	0x3d9356c3	0.07194283
61	0xbd86ad53	-0.06576028
62	0x3d891a3e	0.066944584
63	0x3c80f14d	0.015740061
64	0x3df254c4	0.11832574
65	0x3e544b6a	0.20731893
66	0x3b1fbb65	0.002437317
67	0x3d84e05d	0.064881064
68	0xbd6fac72	-0.058514066
69	0x3c5be44e	0.013421131
70	0xbce5300c	-0.027977012
71	0xbdf0f793	-0.11765971
72	0x3e8ec0b0	0.27881384
73	0x3ed1c4ae	0.40970367
74	0x3e0e61bb	0.13904469
75	0x3dcca64f	0.09992658
76	0xbd27a5b6	-0.04092952
77	0xbe3fd249	-0.18732561
78	0xbe1f0709	-0.15530027
79	0x3afbf910	0.0019224007
80	0x3e06172a	0.13094774
81	0xbd47646f	-0.048679765
82	0x3e2deb1a	0.16984215
83	0x3df72aa7	0.12068682
84	0x3c99ec61	0.018789472
85	0x3e5f36bd	0.21798225
86	0x3d03f59a	0.032216646
87	0x3e3b1b4f	0.18272136
88	0x3dbbd8da	0.091722205
89	0xbe57d059	-0.21075572
90	0x3e71822c	0.23584813
91	0x3e44068f	0.19143127
92	0xbe0d0728	-0.13772261
93	0xbe906af1	-0.2820659
94	0x3dd33126	0.10312109
95	0x3d88e3d3	0.06684079
96	0x3e31511a	0.17316094
97	0x3958594c	0.00020632631
98	0x3d1db8fa	0.038506486
99	0x3d035206	0.032060646
100	0x3e5f8193	0.21826772
101	0x3e2e68bb	0.17032139
102	0x3e6d4dfe	0.23174283
103	0x3e9dd97b	0.30829987
104	0x3e259858	0.16171396
105	0x3daa02ca	0.08301313
106	0x3d10c1d2	0.03534109
107	0x3e0b26f4	0.13589078
108	0xbe117945	-0.14206417
109	0xbda22fee	-0.07919298
110	0x3e3324a5	0.17494448
111	0x3d581c5d	0.052761424
112	0xbe541822	-0.20712331
113	0x3e50333b	0.20332043
114	0x3e1694f6	0.14705262
115	0xbd422e34	-0.047407344
116	0x3dff94f6	0.12479584
117	0xbd85bce5	-0.065301694
118	0x3de9dd09	0.11419112
119	0x3e2024c3	0.15639023
120	0xbe1ee436	-0.15516743
121	0xbd4b03a1	-0.049564008
122	0x3d97c1f8	0.074100435
123	0xbda915ef	-0.082561366
124	0xbb989872	-0.004656845
125	0xbe4a50b0	-0.19757342
126	0xbe160996	-0.14652094
127	0xbb301fcb	-0.002687442
128	0x3ea69135	0.3253266
129	0xbe5e07f4	-0.21682721
130	0xbde5cb28	-0.112203896
131	0xbda53a87	-0.08067804
132	0xbe0bb672	-0.13643816
133	0x3d907bf3	0.070548914
134	0xbd8fe4f0	-0.07026088
135	0x3e170179	0.14746656
136	0x3d36bb0e	0.044611983
137	0xbd7a42be	-0.061098807
138	0x3cd49394	0.025949277
139	0xbe75659c	-0.23964542
140	0x3d87c3c0	0.06629133
141	0x3e539717	0.20663105
142	0xbd9c39b7	-0.07628196
143	0xbe3e32f1	-0.1857412
144	0xbe175686	-0.147791
145	0x3db60a18	0.08888644
146	0xbc440bc0	-0.011965692
147	0x3d187329	0.0372192
148	0xbdefd9cc	-0.11711463
149	0x3e2c0814	0.16799957
150	0x3d30e192	0.04318387
151	0xbe67fe8f	-0.226557
152	0xbe91d073	-0.28479347
153	0xbe69e885	-0.22842605
154	0xbe0dfd25	-0.13866098
155	0x3e8db5da	0.27677804
156	0x3d8af49d	0.067849375
157	0x3cf6f575	0.03014634
158	0xbe4b0329	-0.19825424
159	0x3d8ea1cc	0.06964454
160	0xbe683a2c	-0.22678441
161	0x3e757853	0.23971681
162	0x3e6ba144	0.23010737
163	0xbe09fd28	-0.13475478
164	0xbda854c8	-0.08219296
165	0x3e2f1129	0.1709639
166	0xbc4bad48	-0.01243145
167	0x3e2d5ecd	0.16930695
168	0xbd731cae	-0.059353523
169	0xbdcb3b97	-0.09923475
170	0x3cd43d50	0.025908142
171	0xbd73c0e3	-0.059510123
172	0x3cb64607	0.022250189
173	0xbd57a9e9	-0.052652273
174	0x3d26cc44	0.040722147
175	0xbbf3af5e	-0.007436677
176	0x3d79c771	0.060981218
177	0xbdcc7a20	-0.09984231
178	0xbea4937a	-0.32143766
179	0xbcf8cd59	-0.030371355
180	0x3e3591e6	0.17731437
181	0x3d0483bc	0.032352194
182	0x3cf02fe8	0.029319718
183	0x3dce98f5	0.10087768
184	0x3d164054	0.03668244
185	0x3dfc26fd	0.12312124
186	0xbdba7186	-0.09103684
187	0xbed69729	-0.419122
188	0xbcf5fe6b	-0.030028543
189	0xbe03a572	-0.12856081
190	0xbdc30c29	-0.09523804
191	0x3dfe5c4b	0.12419947
192	0xbd776737	-0.060401168
193	0xbe130634	-0.14357835
194	0x3e63ca11	0.22245051
195	0x3d99d51e	0.07511352
196	0x3c7874e2	0.015164586
197	0xbe415933	-0.18881683
198	0xbe394ea2	-0.18096402
199	0x3e1b1616	0.15145144
200	0xbd897b44	-0.06712964
201	0x3e8f2f1c	0.2796563
202	0xbd727cfe	-0.059201233
203	0xbe6ce4e8	-0.23134196
204	0xbe1d56f4	-0.15365201
205	0x3e979e0c	0.29612768
206	0xbe3d77ba	-0.18502703
207	0x3da09fa1	0.07842947
208	0xbe98746b	-0.2977632
209	0x3c9c15a5	0.01905329
210	0x3d4a0698	0.049322695
211	0x3d598e60	0.053114295
212	0x3d883a1c	0.066517085
213	0xbe0b9a2c	-0.1363303
214	0xbdd75dd3	-0.105159424
215	0x3d43d480	0.047810078
216	0x3e25b5ce	0.16182634
217	0xbe2a578b	-0.16634957
218	0xbc5ca47b	-0.01346695
219	0x3d60d704	0.054892555
220	0x3b328c3d	0.0027244233
221	0xbcf1a73e	-0.029498693
222	0xbd9fd766	-0.07804756
223	0xbece022f	-0.4023604
224	0xbcbe75f6	-0.023249608
225	0x3d5241f1	0.051332418
226	0xbc829e0e	-0.015944507
227	0x3e1f1752	0.1553624
228	0xbce91b54	-0.028455414
229	0x3e5d5b5f	0.21616887
230	0x3e47438d	0.19459362
231	0xbd97cb15	-0.07411782
232	0xbda2fbb3	-0.07958164
233	0xbb950bea	-0.0045485394
234	0x3c0b5a28	0.008505382
235	0xbd3e42d2	-0.046450444
236	0x3cec1522	0.02881867
237	0xbb88be0e	-0.004173047
238	0x3e8c44bf	0.273962
239	0x3d975df8	0.0739097
240	0xbe80dd23	-0.25168714
241	0xbdd93328	-0.106054604
242	0x3daee7a8	0.08540279
243	0x3e1e2818	0.15444982
244	0x3e16d933	0.14731292
245	0xbd35d005	-0.044387836
246	0xbd126f34	-0.035750583
247	0xbe61e070	-0.22058272
248	0x3d313e23	0.04327215
249	0x3e1b5ca1	0.15172054
250	0xbe393a5c	-0.18088669
251	0x3d532b66	0.05155506
252	0x3e6042af	0.21900438
253	0xbe3aaaad	-0.1822917
254	0x3c617041	0.013759674
255	0xbd288d8c	-0.041150615

weight f4 [32, 16]
0	0x3d4abfc8	0.049499303
1	0x3dbb3974	0.09141818
2	0xbda268fc	-0.079301804
3	0x3d050598	0.032476038
4	0xbdfd9438	-0.12381786
5	0xbe6cb51e	-0.23115966
6	0xbe340fe0	-0.17584181
7	0x3da07a04	0.07835773
8	0xbd3279e8	-0.04357329
9	0xbe4045fe	-0.187767
10	0xbdcd8d60	-0.10036731
11	0xbe1aaa04	-0.15103918
12	0x3dff96c8	0.12479931
13	0xbd244e20	-0.04011357
14	0x3d03c658	0.032171577
15	0x3dc730b0	0.09726083
16	0xbe4622e6	-0.1934925
17	0x3e7a0d60	0.24419165
18	0x3c7db920	0.015486032
19	0x3e7b9e62	0.24572137
20	0x3e5204c4	0.2050963
21	0x3e40b8b2	0.18820456
22	0x3c43af00	0.011943579
23	0x3e6030d0	0.2189362
24	0x3dd6b38c	0.104834646
25	0x3d252308	0.04031661
26	0x3d347568	0.04405728
27	0xbd601da8	-0.054715782
28	0x3dae97b0	0.08525026
29	0x3e1d83e2	0.1538234
30	0xbe6ba276	-0.23011193
31	0x3e2395ee	0.15975162
32	0xbd877b08	-0.06615263
33	0x3dbea9c0	0.09309721
34	0xbc1b9f20	-0.009498388
35	0x3e0b7eee	0.13622639
36	0x3d9afc5c	0.07567665
37	0x3e03d816	0.12875399
38	0xbd7c0188	-0.061524898
39	0x3e0bcb0a	0.13651672
40	0x3d2d12f0	0.04225439
41	0x3ddf6edc	0.109098166
42	0x3e109fbe	0.14123437
43	0x3c2ff8e0	0.010740489
44	0xbd68ee28	-0.05686775
45	0xbdc3ab30	-0.09554136
46	0xbe5bb662	-0.21456292
47	0x3e053320	0.13007784
48	0x3e002546	0.12514219
49	0xbe58f962	-0.21188882
50	0xbe66b098	-0.22528303
51	0xbd863810	-0.06553662
52	0xbddb4dd0	-0.10708201
53	0x3e1182ca	0.14210048
54	0xbc71ae60	-0.014751047
55	0xbdb6cc98	-0.08925742
56	0xbe7d9562	-0.24764016
57	0xbe3ccc30	-0.18437266
58	0x3d525e78	0.051359624
59	0x3dffb1dc	0.12485096
60	0xbe2bb642	-0.16768745
61	0xbe0d6c42	-0.13810828
62	0x3e43538c	0.1907484
63	0xbe53d98a	-0.20688453
64	0xbe2b7912	-0.16745403
65	0xbdd1a63c	-0.10236785
66	0xbc0d69e0	-0.0086312
67	0xbafc6000	-0.0019254684
68	0xbdb8148c	-0.08988294
69	0xba800700	-0.0009767711
70	0x3e61f68e	0.2206671
71	0x3d274468	0.04083672
72	0xbd93e384	-0.072211295
73	0xbde13e50	-0.10998213
74	0xbe5f02f4	-0.2177847
75	0x3d408280	0.046999454
76	0xbe2ee2ec	-0.17078751
77	0x3c9da6b0	0.019244522
78	0x3dd34d18	0.10317439
79	0x3e6325ca	0.22182384
80	0x3d2a0900	0.04151249
81	0x3da3fbc8	0.08007008
82	0xbe58d812	-0.21176174
83	0x3dd744a0	0.10511136
84	0xbe419db2	-0.18907812
85	0x3e0a7ecc	0.13524932
86	0x3e734596	0.23757014
87	0x3d4c8ec0	0.049940825
88	0x3de322c0	0.110906124
89	0xbdd2faac	-0.10301718
90	0xbd88bd1c	-0.06676695
91	0xbcd9a150	-0.026566178
92	0x3e1727c4	0.14761263
93	0xbe515b3a	-0.20444956
94	0x3d8d5f7c	0.06902978
95	0x3db22220	0.08697915
96	0x3b38cf00	0.0028199553
97	0xbe0af23e	-0.1356897
98	0xbe78ef6c	-0.24310082
99	0x3e704420	0.23463488
100	0x3d92759c	0.071513385
101	0xbcf52b10	-0.02992776
102	0x3e59ec9c	0.21281666
103	0xbc098900	-0.00839448
104	0x3bae7780	0.005324304
105	0xbe70cff4	-0.23516828
106	0xbcd01b90	-0.025403768
107	0x3d064680	0.032782078
108	0x3e1705f2	0.14748362
109	0x3d2e7e88	0.04260114
110	0x3e2d7290	0.16938233
111	0xbe04a7d6	-0.1295465
112	0x3dd523a0	0.104071856
113	0x3e043280	0.12909889
114	0x3e7c021a	0.24610177
115	0x3e31b5fe	0.17354581
116	0xbe1c835a	-0.15284482
117	0x3e5fb2d6	0.21845564
118	0xbc349020	-0.01102069
119	0x3e0674c4	0.1313048
120	0x3e118814	0.14212066
121	0x3e38102c	0.17974919
122	0x3e152b10	0.14567208
123	0xbdb7a578	-0.089671075
124	0x3d608ed0	0.054823697
125	0x3ccc5a80	0.024945498
126	0x3db87da4	0.09008339
127	0x3e10d7c4	0.14144808
128	0xbe3f66e2	-0.1869159
129	0xbdfa4c7c	-0.122216195
130	0x3d677c90	0.056515276
131	0xbe38c84a	-0.18045154
132	0xbe57d4b8	-0.2107724
133	0x3e62d996	0.22153315
134	0x3d8c769c	0.068585604
135	0x3e07981c	0.13241619
136	0xbd9afd4c	-0.07567844
137	0x3d48bae0	0.049006343
138	0xbe169ade	-0.14707515
139	0xbd232a38	-0.039835185
140	0x3e6a8532	0.22902372
141	0xbca406d0	-0.02002278
142	0x3e286ae2	0.16447023
143	0xbe7abec6	-0.24486837
144	0x3d076770	0.03305763
145	0x3e334cfa	0.17509833
146	0xbc883b70	-0.016629905
147	0xbd48a930	-0.048989475
148	0x3d0fff38	0.035155505
149	0xbe43bf0e	-0.1911585
150	0x3dd3f3d4	0.10349241
151	0xbe3d5aee	-0.18491718
152	0x3c847bf0	0.01617238
153	0xbe428d6c	-0.1899926
154	0xbddaf6cc	-0.10691604
155	0xbd5aae60	-0.053388953
156	0xbda9474c	-0.08265552
157	0xbe03127c	-0.1280002
158	0xbb7bce80	-0.0038422644
159	0x3d9167b0	0.07099855
160	0xbdfefc04	-0.12450412
161	0x3bbddd80	0.005794227
162	0x3dbfb568	0.09360772
163	0x3e454ec4	0.19268328
164	0xbe213716	-0.1574367
165	0xbdcce2f4	-0.100042254
166	0xbe58aa12	-0.21158627
167	0x3de65b5c	0.11247894
168	0x3e385a2c	0.18003148
169	0xbe1d90d0	-0.15387273
170	0xbe64e922	-0.22354558
171	0x3e635b16	0.22202715
172	0xbe0a3c12	-0.13499478
173	0xbdb7aca0	-0.089684725
174	0x3dae6940	0.085161686
175	0xbcfecc70	-0.031103343
176	0xbe47c3e2	-0.19508317
177	0x3d71f1f8	0.05906865
178	0x3e2bea22	0.16788533
179	0xbd8efb1c	-0.06981489
180	0xbd28f6f8	-0.041251153
181	0x3e41fc86	0.18943986
182	0xbd880dc0	-0.066432476
183	0xbd0bff40	-0.034178972
184	0x3dd1deb4	0.102475554
185	0x3e5c6d1a	0.21525994
186	0xbdf3a58c	-0.1189681
187	0x3dc2679c	0.09492418
188	0x3e7fa72e	0.24966118
189	0xbe57b7e4	-0.21066242
190	0xbe65e17c	-0.22449297
191	0xbde96ef8	-0.11398119
192	0xbe15bdca	-0.1462318
193	0xbe6d39a0	-0.23166513
194	0xbcd6aa50	-0.026204258
195	0xbe44954e	-0.1919758
196	0x3e0a2e7e	0.13494298
197	0x3dc4e738	0.09614414
198	0xbde2fe30	-0.11083639
199	0xbe7c8f38	-0.24664009
200	0xbe43ea42	-0.19132331
201	0xbe52122c	-0.20514745
202	0x3db9254c	0.09040317
203	0xbe663138	-0.22479713
204	0x3e6be71a	0.23037377
205	0xbcafdf90	-0.021468908
206	0xbd8e3abc	-0.069447964
207	0xbe5f7280	-0.21821022
208	0x3d9bc428	0.07605773
209	0xbe096b8c	-0.13419932
210	0x3d9753b8	0.07389015
211	0xbe29e4d2	-0.16591194
212	0x3d40b4e0	0.047047496
213	0x3d123b48	0.035701066
214	0xbe555634	-0.20833665
215	0x3e220da8	0.15825522
216	0x3e26835c	0.16261047
217	0xbc62f960	-0.013853401
218	0x3ccb00f0	0.02478072
219	0x3d8313d8	0.06400269
220	0x3df19fb8	0.11798042
221	0x3e66c4d0	0.22536016
222	0x3e1d916a	0.15387502
223	0xbe6a70bc	-0.22894567
224	0x3da09d60	0.07842517
225	0xbd3da930	-0.046303928
226	0xbd275dd8	-0.04086098
227	0x3d9fd270	0.0780381
228	0x3e4f6fda	0.20257512
229	0xbe2899d6	-0.16464934
230	0xbe34ee5e	-0.17669055
231	0x3e0cd74a	0.13754001
232	0xbd9fd598	-0.07804412
233	0x3e254c10	0.16142297
234	0x3e6aa298	0.22913587
235	0x3e792b06	0.24332818
236	0x3ca286a0	0.019839585
237	0x3e0cfe38	0.13768852
238	0xbd8bf464	-0.06833723
239	0x3e23beae	0.15990707
240	0xbdac3938	-0.08409351
241	0x3e795b0a	0.24351135
242	0xbe6a29be	-0.22867486
243	0x3e767702	0.24068835
244	0x3ca30970	0.019901961
245	0xbdd71a48	-0.105030596
246	0x3df75ad0	0.12077868
247	0xbdfbf818	-0.123031795
248	0x3e7a3c90	0.24437165
249	0xbd95833c	-0.073004216
250	0x3d53c5a0	0.05170214
251	0xbc4ccbc0	-0.01249975
252	0x3d595830	0.053062618
253	0xbe1d4e4c	-0.15361899
254	0x3dd77b78	0.10521597
255	0xbe52cae8	-0.20585215

bias f4 [32]
0	0xbe2d66c2	-0.1693373
1	0xbdb94a58	-0.09047383
2	0xbd00f4b0	-0.031483352
3	0xbe1f5ed0	-0.15563512
4	0xbe5ff3c2	-0.2187033
5	0xbe587bea	-0.2114102
6	0x3e1abaa0	0.15110254
7	0xbc6c4620	-0.014421016
8	0xbe15f1ac	-0.14642972
9	0xbd0f7320	-0.0350219
10	0xbda4ed8c	-0.08053121
11	0x3de30b10	0.110860944
12	0xbc9b8c20	-0.018987715
13	0xbda801c4	-0.08203462
14	0xbe4b5e88	-0.1986028
15	0x3e08860a	0.13332382
16	0xbdf4bb88	-0.11949831
17	0x3e08c088	0.13354695
18	0xbdbb62cc	-0.091497034
19	0x3c71ad80	0.014750838
20	0x3da0d4bc	0.07853076
21	0xbe0e8ce2	-0.1392093
22	0xbda0effc	-0.078582734
23	0x3d9a8fec	0.07546982
24	0xbda357e0	-0.07975745
25	0xbda72c0c	-0.08162698
26	0x3e79759e	0.24361274
27	0xbe690766	-0.22756729
28	0x3e1fbcae	0.1559932
29	0x3e181738	0.14852607
30	0xbc236520	-0.009972841
31	0xbdc5134c	-0.09622821

weight f4 [32]
0	0x3f800000	1.0
1	0x3f800000	1.0
2	0x3f800000	1.0
3	0x3f800000	1.0
4	0x3f800000	1.0
5	0x3f800000	1.0
6	0x3f800000	1.0
7	0x3f800000	1.0
8	0x3f800000	1.0
9	0x3f800000	1.0
10	0x3f800000	1.0
11	0x3f800000	1.0
12	0x3f800000	1.0
13	0x3f800000	1.0
14	0x3f800000	1.0
15	0x3f800000	1.0
16	0x3f800000	1.0
17	0x3f800000	1.0
18	0x3f800000	1.0
19	0x3f800000	1.0
20	0x3f800000	1.0
21	0x3f800000	1.0
22	0x3f800000	1.0
23	0x3f800000	1.0
24	0x3f800000	1.0
25	0x3f800000	1.0
26	0x3f800000	1.0
27	0x3f800000	1.0
28	0x3f800000	1.0
29	0x3f800000	1.0
30	0x3f800000	1.0
31	0x3f800000	1.0

bias f4 [32]
0	0x00000000	0.0
1	0x00000000	0.0
2	0x00000000	0.0
3	0x00000000	0.0
4	0x00000000	0.0
5	0x00000000	0.0
6	0x00000000	0.0
7	0x00000000	0.0
8	0x00000000	0.0
9	0x00000000	0.0
10	0x00000000	0.0
11	0x00000000	0.0
12	0x00000000	0.0
13	0x00000000	0.0
14	0x00000000	0.0
15	0x00000000	0.0
16	0x00000000	0.0
17	0x00000000	0.0
18	0x00000000	0.0
19	0x00000000	0.0
20	0x00000000	0.0
21	0x00000000	0.0
22	0x00000000	0.0
23	0x00000000	0.0
24	0x00000000	0.0
25	0x00000000	0.0
26	0x00000000	0.0
27	0x00000000	0.0
28	0x00000000	0.0
29	0x00000000	0.0
30	0x00000000	0.0
31	0x00000000	0.0

running_mean f4 [32]
0	0x00000000	0.0
1	0x00000000	0.0
2	0x00000000	0.0
3	0x00000000	0.0
4	0x00000000	0.0
5	0x00000000	0.0
6	0x00000000	0.0
7	0x00000000	0.0
8	0x00000000	0.0
9	0x00000000	0.0
10	0x00000000	0.0
11	0x00000000	0.0
12	0x00000000	0.0
13	0x00000000	0.0
14	0x00000000	0.0
15	0x00000000	0.0
16	0x00000000	0.0
17	0x00000000	0.0
18	0x00000000	0.0
19	0x00000000	0.0
20	0x00000000	0.0
21	0x00000000	0.0
22	0x00000000	0.0
23	0x00000000	0.0
24	0x00000000	0.0
25	0x00000000	0.0
26	0x00000000	0.0
27	0x00000000	0.0
28	0x00000000	0.0
29	0x00000000	0.0
30	0x00000000	0.0
31	0x00000000	0.0

running_var f4 [32]
0	0x3f800000	1.0
1	0x3f800000	1.0
2	0x3f800000	1.0
3	0x3f800000	1.0
4	0x3f800000	1.0
5	0x3f800000	1.0
6	0x3f800000	1.0
7	0x3f800000	1.0
8	0x3f800000	1.0
9	0x3f800000	1.0
10	0x3f800000	1.0
11	0x3f800000	1.0
12	0x3f800000	1.0
13	0x3f800000	1.0
14	0x3f800000	1.0
15	0x3f800000	1.0
16	0x3f800000	1.0
17	0x3f800000	1.0
18	0x3f800000	1.0
19	0x3f800000	1.0
20	0x3f800000	1.0
21	0x3f800000	1.0
22	0x3f800000	1.0
23	0x3f800000	1.0
24	0x3f800000	1.0
25	0x3f800000	1.0
26	0x3f800000	1.0
27	0x3f800000	1.0
28	0x3f800000	1.0
29	0x3f800000	1.0
30	0x3f800000	1.0
31	0x3f800000	1.0

weight f4 [64, 32]
0	0xbdc01947	-0.09379821
1	0x3da59b6a	0.080862835
2	0x3e15aa78	0.1461581
3	0xbe31457c	-0.17311662
4	0x3cd99716	0.026561301
5	0xbe0b06a2	-0.13576749
6	0x3d5b5fe1	0.053558234
7	0xbe15d251	-0.1463101
8	0x3d9cae7a	0.07650466
9	0x3dc0fd7c	0.09423348
10	0xbdd629db	-0.10457202
11	0x3d8e32a7	0.06943255
12	0x3dc07a10	0.093982816
13	0xbc38ce7b	-0.0112796975
14	0xbd98847b	-0.07447144
15	0x3e2feb8f	0.17179702
16	0x3dbd302c	0.09237704
17	0x3e29a72b	0.16567676
18	0xbe2968ea	-0.16543928
19	0xbdb29b72	-0.08721055
20	0x3db8640d	0.09003458
21	0x3d99a34d	0.0750185
22	0xbd1a14c8	-0.037617475
23	0x38bc0bd4	8.966742e-05
24	0x3d327b8a	0.043574847
25	0x3c8c5073	0.017128205
26	0x3d20bf2f	0.039244827
27	0xbc143524	-0.009045873
28	0x3d5fe70c	0.054663703
29	0x3c4d69c3	0.012537423
30	0x3d8eb6a6	0.06968431
31	0x3e2bf6d8	0.16793382
32	0xbe28feda	-0.16503468
33	0xbe2c649f	-0.16835259
34	0x3e1e526d	0.1546113
35	0x3ca0a7c3	0.019611245
36	0x3de76091	0.112977155
37	0xbda31510	-0.07963002
38	0x3b9f99b1	0.0048706164
39	0xbdbe0ee1	-0.09280182
40	0xbe175796	-0.14779505
41	0x3dacdec3	0.08440926
42	0xbd9a56fc	-0.07536122
43	0xbdab3a2e	-0.08360706
44	0xbb4dc062	-0.0031395187
45	0xbc019a3f	-0.00791031
46	0xbdd415d3	-0.10355725
47	0x3e3238e0	0.17404509
48	0x3b2bc9cc	0.002621281
49	0xbdddcb12	-0.10829748
50	0x3d8823f2	0.06647481
51	0x3d0b01e1	0.03393734
52	0x3e184721	0.14870884
53	0xbe26dfa9	-0.16296257
54	0xbc8224ed	-0.015886748
55	0xbb5973b0	-0.0033180527
56	0x3df328da	0.11873026
57	0x3b3026ac	0.002687852
58	0x3c4bab3a	0.01243096
59	0xbba3ab15	-0.00499476
60	0xbe0e17c3	-0.13876252
61	0x3cea9a83	0.02863813
62	0x3dbc1f24	0.09185627
63	0x3dd068f6	0.1017627
64	0xbe2245db	-0.1584696
65	0xbddbf421	-0.10739923
66	0x3da7ae8a	0.081875876
67	0xbdb2bb9f	-0.08727192
68	0xbe31d519	-0.17366447
69	0x3cea06dc	0.028567724
70	0x3d6230dd	0.05522238
71	0xbd4f8f1e	-0.050673597
72	0xbd01084b	-0.03150205
73	0xbc385821	-0.01125148
74	0xbe2f3464	-0.17109829
75	0x3ddfbe47	0.109249644
76	0x3d9db372	0.07700242
77	0xbd42e93b	-0.047585707
78	0xbe3166a1	-0.17324306
79	0x3dc08826	0.09400968
80	0xbdc62fc6	-0.09677081
81	0x3dcce030	0.10003698
82	0x3c7dfc53	0.015502053
83	0xbd62922e	-0.05531519
84	0xbdeb9f25	-0.11504964
85	0xbe19ca67	-0.15018617
86	0xbdf1222b	-0.11774095
87	0xbe08e377	-0.13368021
88	0xbe2cc360	-0.16871405
89	0xbd757d54	-0.059933975
90	0xbe3305af	-0.17482637
91	0xbe0dee5f	-0.13860463
92	0xbcacb522	-0.021082465
93	0x3db59bda	0.08867617
94	0xbdffbdb3	-0.12487354
95	0xbd771ab9	-0.06032822
96	0xbe0adf70	-0.13561797
97	0x3d83f6de	0.064435706
98	0xbe088970	-0.13333678
99	0x3dc66d97	0.09688871
100	0x3d9402d0	0.07227099
101	0xbd4eb8cc	-0.050469205
102	0xbe01175f	-0.12606572
103	0xbd849359	-0.06473417
104	0x3df9e46d	0.12201772
105	0x3ca29afa	0.01984929
106	0x3d9f8b29	0.077902146
107	0xbc41d499	-0.011830472
108	0x3e251393	0.16120748
109	0xbe10c7d3	-0.14138727
110	0xbe294dde	-0.1653361
111	0x3e071c85	0.13194473
112	0xbd832e72	-0.06405343
113	0x3dae1d7b	0.08501717
114	0xbb6d80ee	-0.0036240178
115	0xbcc6d405	-0.02427102
116	0xbc574639	-0.013139301
117	0x3e0e7823	0.13913016
118	0x3d920d1f	0.07131409
119	0xbdcb8ab0	-0.09938562
120	0xbe12ce1e	-0.1433644
121	0x3b416c91	0.0029514174
122	0xbdc8f6ec	-0.098127216
123	0x3d71e146	0.059052728
124	0xbce6c9b0	-0.028172344
125	0xbe04e069	-0.1297623
126	0x3dc71f24	0.097227365
127	0xbe0959b9	-0.13413133
128	0x3de52e81	0.111905105
129	0xbd87f2b6	-0.0663809
130	0xb82970c2	-4.0397754e-05
131	0xbe2afdf8	-0.16698444
132	0xbae56757	-0.0017502111
133	0x3dc38c41	0.09548236
134	0x3e0974ad	0.13423415
135	0xbd2461bc	-0.04013227
136	0x3e207c2a	0.15672365
137	0x3dfa3eb7	0.12218993
138	0x3d5a60ca	0.05331496
139	0xbdaaff8b	-0.08349522
140	0xbe2d0cee	-0.16899464
141	0x3d0bef2e	0.034163646
142	0xbd11967e	-0.03554391
143	0xbd869d86	-0.06573014
144	0xbd938468	-0.07202989
145	0x3e0f31d3	0.1398385
146	0x3d9f92df	0.07791685
147	0x3cd4dcbe	0.025984164
148	0xbdc1ed20	-0.09469056
149	0x3de44c30	0.11147344
150	0xbd81c7e0	-0.06336951
151	0xbb129080	-0.002236396
152	0x3c668420	0.014069587
153	0xbd9aeb69	-0.07564432
154	0xbc5a6b87	-0.013331301
155	0xbcd7d377	-0.026345951
156	0x3c981618	0.018565223
157	0xbcd85f1f	-0.026412545
158	0x3e1fcc22	0.15605214
159	0x3e2a6fda	0.1664423
160	0x3e00ec3c	0.12590116
161	0x3df4d24c	0.119541734
162	0x3cf08feb	0.0293655
163	0xbd2052d7	-0.039141502
164	0x3de6dfe5	0.11273173
165	0x3e23e75a	0.16006222
166	0xbd221e92	-0.039579935
167	0x3e1b0f24	0.15142494
168	0x3b384b94	0.002812122
169	0xbe223ade	-0.15842769
170	0xbca93ad7	-0.02065794
171	0x3da74d31	0.0816902
172	0xbdc8ef17	-0.09811228
173	0xbcc6a779	-0.024249779
174	0xbe122c39	-0.14274682
175	0x3e306997	0.1722778
176	0x3c266e47	0.010158128
177	0x3d9b9bad	0.07598052
178	0xbd555b8e	-0.052089266
179	0xbdac694e	-0.08418523
180	0x3dcd925b	0.10037681
181	0x3dfd5994	0.12370601
182	0x3de121ee	0.109928
183	0xbdf1998f	-0.11796867
184	0x3e044efd	0.12920757
185	0xbdb315b6	-0.087443754
186	0xbd9565d3	-0.07294812
187	0x3e298c61	0.16557457
188	0x3e1fa7b3	0.15591316
189	0x3d331846	0.04372432
190	0xbe093c65	-0.13401945
191	0xbd14592e	-0.03621786
192	0x3e0805ad	0.13283415
193	0xbd53e3f3	-0.05173106
194	0x3d30e318	0.043185323
195	0xbc8219d5	-0.015881458
196	0x3d9d46dc	0.07679531
197	0x3dc97ce3	0.098382734
198	0xbdcb6dc6	-0.09933047
199	0x3e29eb94	0.16593772
200	0x3e1b712a	0.15179887
201	0xbd798521	-0.060917977
202	0xbdc78ee8	-0.09744054
203	0x3e2c50c2	0.16827682
204	0xbc2dac66	-0.010600185
205	0x3e10addc	0.14128822
206	0xbd9638e3	-0.07335069
207	0x3d9ff995	0.07811276
208	0x3e0e4cd3	0.13896494
209	0xbdb144e0	-0.08655715
210	0xbe1b9cd8	-0.1519655
211	0xbda082f8	-0.0783748
212	0xbd1daa68	-0.03849259
213	0xbd2c3b83	-0.042048942
214	0x3d9b67d6	0.075881645
215	0xbd72afba	-0.059249617
216	0x3d566a7d	0.05234765
217	0xbd89e53f	-0.06733178
218	0xbd5c5133	-0.053788375
219	0x3d75387f	0.059868332
220	0xbe1ea9bd	-0.15494438
221	0x3d8dfc5f	0.069329016
222	0xbe1f7954	-0.15573627
223	0xbcf45b87	-0.0298288
224	0xbc44f0e4	-0.012020323
225	0x3e0d862c	0.13820714
226	0xbdf97c1d	-0.12181876
227	0xbdc7a66e	-0.09748541
228	0x3e067ac1	0.13132764
229	0xbe1e7a1d	-0.1547627
230	0x3d9dac05	0.07698826
231	0x3de35bb7	0.111014776
232	0x3d93270c	0.07185182
233	0x3e25ef0c	0.1620447
234	0xbdfa75a6	-0.12229471
235	0xbe182df7	-0.14861284
236	0xbcf8bf9b	-0.030364802
237	0xbe1bcc8e	-0.1521475
238	0x3e0cb56c	0.13741082
239	0xbe00648e	-0.12538359
240	0xbc121c9f	-0.008917957
241	0x3b335543	0.0027364052
242	0xbd911dad	-0.07085738
243	0xbddc5ca3	-0.107598566
244	0x3e128cba	0.14311495
245	0x3ddbc175	0.107302584
246	0x3d9d518e	0.07681571
247	0x3d440bbe	0.04786276
248	0x3daf9650	0.08573592
249	0x3e2ba6ff	0.16762923
250	0x3c9d98fe	0.019237991
251	0x3c8174d0	0.01580277
252	0x3c5bda9b	0.013418819
253	0xbdfee318	-0.124456584
254	0xbcf7d533	-0.030253028
255	0xbe20911e	-0.15680358

bias f4 [64]
0	0xbcf8e800	-0.030384064
1	0xbd0f2525	-0.034947533
2	0xbcc014c7	-0.023447407
3	0xbdb29ea4	-0.087216645
4	0x3ddabb6e	0.106802806
5	0x3dbe82f7	0.09302323
6	0x3e0f97b0	0.14022708
7	0x3e178ef1	0.14800622
8	0xbd7cb494	-0.06169565
9	0xbde4848c	-0.11158094
10	0xbe2811a3	-0.16412978
11	0x3dbf94c0	0.09354544
12	0xbe284abd	-0.1643476
13	0x3e0a8747	0.13528167
14	0x3d644337	0.055728164
15	0x3e032155	0.12805684
16	0x3de5228a	0.111882284
17	0x3e23640a	0.1595613
18	0x3e234e09	0.15947737
19	0x3e1e6a1c	0.15470165
20	0x3cb72008	0.02235414
21	0x3d51f762	0.051261313
22	0xbd44e358	-0.048068374
23	0xbe00c165	-0.12573774
24	0x3df960af	0.12176644
25	0xbd41b555	-0.047292072
26	0x3b63c1e7	0.0034753026
27	0x3e22494c	0.15848273
28	0x3dd81d7e	0.105525
29	0x3e1e0962	0.15433267
30	0x3e19d3ee	0.15022251
31	0xbd93e3ab	-0.072211586
32	0x3cd2c73b	0.025729766
33	0x3de0ad12	0.109705105
34	0x3c2cb9f3	0.010542381
35	0xbc13e444	-0.009026591
36	0x3de9e6ee	0.114209995
37	0x3e265557	0.16243492
38	0xbcfe3db0	-0.031035274
39	0x3ce93621	0.028468193
40	0xbd9f6fa4	-0.07784966
41	0xbe13451c	-0.14381832
42	0xbd8267ce	-0.063674554
43	0x3d150ffd	0.0363922
44	0xbd6b528f	-0.05745178
45	0x3d5b0c92	0.053478785
46	0xbe1a70d8	-0.15082109
47	0x3dcce783	0.10005095
48	0x3e039853	0.12851076
49	0x3e1049f7	0.14090715
50	0x3c032585	0.008004551
51	0xbe2e5f18	-0.17028463
52	0xbd07ba7f	-0.03313684
53	0xbd3c269c	-0.04593526
54	0xbe1387d2	-0.1440728
55	0x3e1d966d	0.15389414
56	0x3d249aca	0.04018668
57	0x3e093372	0.13398531
58	0x3db2a3b3	0.087226294
59	0xbd53c2ac	-0.051699325
60	0xbe2d4044	-0.16919047
61	0xbe19fc72	-0.15037706
62	0x3d16fea2	0.03686393
63	0xbdaa6450	-0.08319914

weight f4 [64]
0	0x3f800000	1.0
1	0x3f800000	1.0
2	0x3f800000	1.0
3	0x3f800000	1.0
4	0x3f800000	1.0
5	0x3f800000	1.0
6	0x3f800000	1.0
7	0x3f800000	1.0
8	0x3f800000	1.0
9	0x3f800000	1.0
10	0x3f800000	1.0
11	0x3f800000	1.0
12	0x3f800000	1.0
13	0x3f800000	1.0
14	0x3f800000	1.0
15	0x3f800000	1.0
16	0x3f800000	1.0
17	0x3f800000	1.0
18	0x3f800000	1.0
19	0x3f800000	1.0
20	0x3f800000	1.0
21	0x3f800000	1.0
22	0x3f800000	1.0
23	0x3f800000	1.0
24	0x3f800000	1.0
25	0x3f800000	1.0
26	0x3f800000	1.0
27	0x3f800000	1.0
28	0x3f800000	1.0
29	0x3f800000	1.0
30	0x3f800000	1.0
31	0x3f800000	1.0
32	0x3f800000	1.0
33	0x3f800000	1.0
34	0x3f800000	1.0
35	0x3f800000	1.0
36	0x3f800000	1.0
37	0x3f800000	1.0
38	0x3f800000	1.0
39	0x3f800000	1.0
40	0x3f800000	1.0
41	0x3f800000	1.0
42	0x3f800000	1.0
43	0x3f800000	1.0
44	0x3f800000	1.0
45	0x3f800000	1.0
46	0x3f800000	1.0
47	0x3f800000	1.0
48	0x3f800000	1.0
49	0x3f800000	1.0
50	0x3f800000	1.0
51	0x3f800000	1.0
52	0x3f800000	1.0
53	0x3f800000	1.0
54	0x3f800000	1.0
55	0x3f800000	1.0
56	0x3f800000	1.0
57	0x3f800000	1.0
58	0x3f800000	1.0
59	0x3f800000	1.0
60	0x3f800000	1.0
61	0x3f800000	1.0
62	0x3f800000	1.0
63	0x3f800000	1.0

bias f4 [64]
0	0x00000000	0.0
1	0x00000000	0.0
2	0x00000000	0.0
3	0x00000000	0.0
4	0x00000000	0.0
5	0x00000000	0.0
6	0x00000000	0.0
7	0x00000000	0.0
8	0x00000000	0.0
9	0x00000000	0.0
10	0x00000000	0.0
11	0x00000000	0.0
12	0x00000000	0.0
13	0x00000000	0.0
14	0x00000000	0.0
15	0x00000000	0.0
16	0x00000000	0.0
17	0x00000000	0.0
18	0x00000000	0.0
19	0x00000000	0.0
20	0x00000000	0.0
21	0x00000000	0.0
22	0x00000000	0.0
23	0x00000000	0.0
24	0x00000000	0.0
25	0x00000000	0.0
26	0x00000000	0.0
27	0x00000000	0.0
28	0x00000000	0.0
29	0x00000000	0.0
30	0x00000000	0.0
31	0x00000000	0.0
32	0x00000000	0.0
33	0x00000000	0.0
34	0x00000000	0.0
35	0x00000000	0.0
36	0x00000000	0.0
37	0x00000000	0.0
38	0x00000000	0.0
39	0x00000000	0.0
40	0x00000000	0.0
41	0x00000000	0.0
42	0x00000000	0.0
43	0x00000000	0.0
44	0x00000000	0.0
45	0x00000000	0.0
46	0x00000000	0.0
47	0x00000000	0.0
48	0x00000000	0.0
49	0x00000000	0.0
50	0x00000000	0.0
51	0x00000000	0.0
52	0x00000000	0.0
53	0x00000000	0.0
54	0x00000000	0.0
55	0x00000000	0.0
56	0x00000000	0.0
57	0x00000000	0.0
58	0x00000000	0.0
59	0x00000000	0.0
60	0x00000000	0.0
61	0x00000000	0.0
62	0x00000000	0.0
63	0x00000000	0.0

running_mean f4 [64]
0	0x00000000	0.0
1	0x00000000	0.0
2	0x00000000	0.0
3	0x00000000	0.0
4	0x00000000	0.0
5	0x00000000	0.0
6	0x00000000	0.0
7	0x00000000	0.0
8	0x00000000	0.0
9	0x00000000	0.0
10	0x00000000	0.0
11	0x00000000	0.0
12	0x00000000	0.0
13	0x00000000	0.0
14	0x00000000	0.0
15	0x00000000	0.0
16	0x00000000	0.0
17	0x00000000	0.0
18	0x00000000	0.0
19	0x00000000	0.0
20	0x00000000	0.0
21	0x00000000	0.0
22	0x00000000	0.0
23	0x00000000	0.0
24	0x00000000	0.0
25	0x00000000	0.0
26	0x00000000	0.0
27	0x00000000	0.0
28	0x00000000	0.0
29	0x00000000	0.0
30	0x00000000	0.0
31	0x00000000	0.0
32	0x00000000	0.0
33	0x00000000	0.0
34	0x00000000	0.0
35	0x00000000	0.0
36	0x00000000	0.0
37	0x00000000	0.0
38	0x00000000	0.0
39	0x00000000	0.0
40	0x00000000	0.0
41	0x00000000	0.0
42	0x00000000	0.0
43	0x00000000	0.0
44	0x00000000	0.0
45	0x00000000	0.0
46	0x00000000	0.0
47	0x00000000	0.0
48	0x00000000	0.0
49	0x00000000	0.0
50	0x00000000	0.0
51	0x00000000	0.0
52	0x00000000	0.0
53	0x00000000	0.0
54	0x00000000	0.0
55	0x00000000	0.0
56	0x00000000	0.0
57	0x00000000	0.0
58	0x00000000	0.0
59	0x00000000	0.0
60	0x00000000	0.0
61	0x00000000	0.0
62	0x00000000	0.0
63	0x00000000	0.0

running_var f4 [64]
0	0x3f800000	1.0
1	0x3f800000	1.0
2	0x3f800000	1.0
3	0x3f800000	1.0
4	0x3f800000	1.0
5	0x3f800000	1.0
6	0x3f800000	1.0
7	0x3f800000	1.0
8	0x3f800000	1.0
9	0x3f800000	1.0
10	0x3f800000	1.0
11	0x3f800000	1.0
12	0x3f800000	1.0
13	0x3f800000	1.0
14	0x3f800000	1.0
15	0x3f800000	1.0
16	0x3f800000	1.0
17	0x3f800000	1.0
18	0x3f800000	1.0
19	0x3f800000	1.0
20	0x3f800000	1.0
21	0x3f800000	1.0
22	0x3f800000	1.0
23	0x3f800000	1.0
24	0x3f800000	1.0
25	0x3f800000	1.0
26	0x3f800000	1.0
27	0x3f800000	1.0
28	0x3f800000	1.0
29	0x3f800000	1.0
30	0x3f800000	1.0
31	0x3f800000	1.0
32	0x3f800000	1.0
33	0x3f800000	1.0
34	0x3f800000	1.0
35	0x3f800000	1.0
36	0x3f800000	1.0
37	0x3f800000	1.0
38	0x3f800000	1.0
39	0x3f800000	1.0
40	0x3f800000	1.0
41	0x3f800000	1.0
42	0x3f800000	1.0
43	0x3f800000	1.0
44	0x3f800000	1.0
45	0x3f800000	1.0
46	0x3f800000	1.0
47	0x3f800000	1.0
48	0x3f800000	1.0
49	0x3f800000	1.0
50	0x3f800000	1.0
51	0x3f800000	1.0
52	0x3f800000	1.0
53	0x3f800000	1.0
54	0x3f800000	1.0
55	0x3f800000	1.0
56	0x3f800000	1.0
57	0x3f800000	1.0
58	0x3f800000	1.0
59	0x3f800000	1.0
60	0x3f800000	1.0
61	0x3f800000	1.0
62	0x3f800000	1.0
63	0x3f800000	1.0

weight f4 [32, 16]
0	0xbd838f08	-0.064237654
1	0x3e3bed5e	0.18352267
2	0xbe365d68	-0.17809069
3	0xbe10fb8c	-0.14158458
4	0x3e0ae5b4	0.13564187
5	0x3e79859a	0.24367371
6	0x3df8de88	0.121518195
7	0x3d183e80	0.03716898
8	0xbd9a5708	-0.07536131
9	0xbe11dc96	-0.14244303
10	0x3e66c3ae	0.22535583
11	0xbdf36bf0	-0.11885822
12	0xbd5b6e38	-0.05357191
13	0xbe74bc98	-0.23900068
14	0x3de65b88	0.11247927
15	0xbdff68d0	-0.12471163
16	0xbe318b5a	-0.17338315
17	0x3e08315a	0.13300076
18	0xbdc6a16c	-0.096987575
19	0x3da11cf0	0.078668475
20	0x3d540270	0.051760137
21	0xbd85ca08	-0.06532675
22	0xbdecbe54	-0.1155974
23	0xbe104dbc	-0.14092153
24	0xbdeb92c8	-0.11502606
25	0x3d6fbe40	0.058531046
26	0xbe290e64	-0.16509396
27	0x3e1b2be8	0.15153468
28	0xbda35230	-0.079746604
29	0x3e05b470	0.13057113
30	0x3e5f45a6	0.21803913
31	0xbe41d618	-0.18929327
32	0x3d97fc58	0.074211776
33	0x3da3374c	0.079695314
34	0xbd95c1d8	-0.073123634
35	0xbddaffc0	-0.10693312
36	0xbd2f7830	-0.04283923
37	0x3d9fb0a0	0.077973604
38	0x3e0ddf62	0.13854745
39	0x3e15e460	0.146379
40	0x3dda3328	0.106542885
41	0x3da8a240	0.08234072
42	0x3d89840c	0.06714639
43	0xbe46ef3c	-0.19427198
44	0xbd6516e0	-0.05593002
45	0xbe6733ac	-0.22578305
46	0xbc624260	-0.01380977
47	0x3da0f7f4	0.07859793
48	0x3e651f10	0.2237513
49	0x3bd011c0	0.006349772
50	0x3e7e602a	0.24841371
51	0xbe051b38	-0.12998664
52	0x3d5fcf70	0.054641187
53	0xbda9b080	-0.08285618
54	0xbd8a1dc0	-0.067439556
55	0x3deb5d04	0.11492351
56	0x3d201a70	0.039087713
57	0x3e7df9c6	0.24802312
58	0xbe6d94da	-0.23201314
59	0x3dd2e9a4	0.1029847
60	0x3da4c7c8	0.08045918
61	0xbe78f34e	-0.24311563
62	0x3e66d2f4	0.2254141
63	0x3db05c40	0.08611345
64	0xbe0df628	-0.13863432
65	0x3e6f95ca	0.23396984
66	0xbda10fa8	-0.07864314
67	0xbe4c197c	-0.19931597
68	0xbd679f00	-0.05654812
69	0x3ca61c50	0.020277172
70	0xbdf99300	-0.12186241
71	0x3d997008	0.074920714
72	0x3e63f41c	0.22261089
73	0x3e32e14c	0.17468756
74	0x3e703630	0.23458171
75	0x3e7cc9ee	0.24686405
76	0x3da731d8	0.08163804
77	0xbe4d255a	-0.2003378
78	0xbe52a836	-0.2057198
79	0xbe5fda82	-0.21860698
80	0x3d77ffa0	0.060546517
81	0x3d0d4950	0.034493744
82	0x3e294ad6	0.16532454
83	0x3e70572c	0.23470753
84	0x3e5907aa	0.2119433
85	0x3d2a7318	0.04161367
86	0x3e30f784	0.1728192
87	0xbe7b74d6	-0.24556288
88	0xbd75c850	-0.060005486
89	0xbdc0ce80	-0.09414387
90	0x3c3d8900	0.011568308
91	0x3e00b040	0.12567234
92	0xbe466148	-0.19373047
93	0x3e4a2484	0.19740492
94	0x3e4a270a	0.19741455
95	0x3dd0f428	0.10202819
96	0xbcbdb720	-0.02315861
97	0xbddffa00	-0.109363556
98	0xbe1d2dd4	-0.15349513
99	0x3d48d540	0.049031496
100	0xbb9b1140	-0.004732281
101	0x3e47ecf0	0.19523978
102	0xbe642b50	-0.22282147
103	0xbd808d28	-0.062769234
104	0x3db35248	0.08755928
105	0xbe069624	-0.13143212
106	0x3df28b1c	0.11842939
107	0x3e64d5b2	0.22347143
108	0xbcb07310	-0.021539241
109	0x3e14689c	0.1449303
110	0x3d42a5b0	0.047521293
111	0xbcc80fe0	-0.024421632
112	0x3e6375c0	0.22212887
113	0xbcc20c00	-0.023687363
114	0x3e0abf2a	0.13549486
115	0x3d9f58f8	0.07780641
116	0x3e3e8172	0.18604067
117	0x3e4f3c1e	0.20237777
118	0xbe7feed4	-0.2499345
119	0xbcb3fae0	-0.021970212
120	0xbd09d128	-0.033646733
121	0xbe1d6816	-0.15371737
122	0x3e57eb4e	0.21085855
123	0x3d9c5224	0.076328546
124	0xbbbe5240	-0.005808145
125	0x3e7b7204	0.24555212
126	0x3e709fe2	0.2349849
127	0xbd84461c	-0.06458685
128	0xbe747e50	-0.2387631
129	0xbe286c16	-0.16447482
130	0xbe184a00	-0.14871979
131	0x3db4f778	0.088362634
132	0x3e019fc2	0.12658599
133	0x3d2f1f78	0.04275462
134	0x3e415ce4	0.18883091
135	0xbe7de2ec	-0.24793595
136	0x3e760326	0.24024639
137	0x3e53dda0	0.20690012
138	0xbd3173d0	-0.043323338
139	0xbdeb3180	-0.11484051
140	0xbe4035e4	-0.18770558
141	0xbe11e802	-0.1424866
142	0x3d90dc84	0.0707331
143	0xbe333970	-0.1750238
144	0x3e73fab0	0.23826098
145	0xbe1dea0e	-0.15421316
146	0x3de3b178	0.11117834
147	0x3c3dc080	0.01158154
148	0xbd501a10	-0.050806105
149	0xbd500178	-0.05078265
150	0x3cb5cbf0	0.022191972
151	0x3d669fb0	0.056304634
152	0xbce5bb20	-0.02804333
153	0x3e490258	0.196298
154	0xbde68c7c	-0.11257264
155	0x3deb18bc	0.11479327
156	0x3aec0600	0.0018007159
157	0xbd85d930	-0.06535566
158	0x3e312774	0.17300206
159	0xbe5d2dfa	-0.2159957
160	0xbd8ae824	-0.067825586
161	0x3e443b90	0.19163346
162	0x3e0234e6	0.12715492
163	0xbd9c3da0	-0.076289415
164	0x3df5f140	0.120089054
165	0x3e54ecca	0.20793453
166	0xbd86e764	-0.06587103
167	0x3c747380	0.0149201155
168	0xbe776fec	-0.24163789
169	0xbe59ebaa	-0.21281305
170	0x3e00464a	0.12526813
171	0x3e098de8	0.13433039
172	0x3cc6e980	0.024281263
173	0xbd9a9774	-0.07548419
174	0x3e23ccfe	0.15996167
175	0xbd00ed58	-0.03147635
176	0xbe1aa1de	-0.1510081
177	0xbe5bf26a	-0.21479192
178	0x3e25ee18	0.16204107
179	0x3e4f4550	0.20241284
180	0xbd8488e8	-0.06471425
181	0xbe3ba6c6	-0.18325338
182	0x3e74f0d8	0.2392
183	0xbd479e70	-0.048735082
184	0xbe02869e	-0.12746665
185	0x3cc2ea80	0.023793459
186	0xbe4d0d2a	-0.20024553
187	0x3d6dc1f0	0.05804628
188	0xbdd5d8c4	-0.104417354
189	0xbe2ea7c8	-0.17056191
190	0xbde04d94	-0.10952297
191	0xbe205af6	-0.15659699
192	0x3e5fdd9c	0.21861881
193	0xbde3a1bc	-0.11114833
194	0x3e3ebf18	0.18627584
195	0xbe495f98	-0.19665372
196	0x3e4113a6	0.18855152
197	0xbe1a11fc	-0.15045923
198	0x3e5e9c24	0.2173925
199	0xbe52f1b2	-0.20600012
200	0xbe3a95c2	-0.1822119
201	0xbd680318	-0.056643575
202	0x3dc74ea0	0.097317934
203	0x3e797614	0.2436145
204	0x3e65b370	0.22431731
205	0xbc5c3300	-0.013439894
206	0x3e728f88	0.23687565
207	0xbe1fc9ca	-0.1560432
208	0xbe0a5c4e	-0.13511774
209	0xbe09eebc	-0.13469976
210	0xbdb28234	-0.087162405
211	0x3dda0ab8	0.10646576
212	0x3e6e8a88	0.23295033
213	0x3d1c4538	0.03815195
214	0x3e241348	0.1602298
215	0x3d8b171c	0.06791517
216	0xbe2ab3ce	-0.16670153
217	0x3e3f68b0	0.18692279
218	0xbe628b42	-0.22123435
219	0xbdcbec9c	-0.09957239
220	0x3d91958c	0.07108602
221	0xbdbf0d98	-0.09328765
222	0x3d88b7ac	0.06675658
223	0xbe1f988a	-0.15585533
224	0x3d651998	0.05593261
225	0x3e03c942	0.12869743
226	0x3e65bad2	0.22434548
227	0x3e250882	0.16116527
228	0x3e66e914	0.2254985
229	0xbd1490d0	-0.036270916
230	0x3e2f218c	0.17102641
231	0x3c2f8ee0	0.010715216
232	0x3cd39390	0.0258272
233	0x3e6f760a	0.23384872
234	0xbdfd98f0	-0.12382686
235	0x3cd6d2d0	0.02622357
236	0xbe30bb00	-0.17258835
237	0x3d8526e0	0.065015554
238	0xbe5994b8	-0.21248138
239	0xbde14ee0	-0.11001372
240	0xbdb39384	-0.08768371
241	0xbdc6dae0	-0.09709716
242	0x3da8b6f0	0.082380176
243	0x3e7d0cee	0.24711964
244	0xbde3fed8	-0.11132592
245	0xbd3ee4d8	-0.04660496
246	0x3d3fc670	0.046820104
247	0xbe051d88	-0.12999547
248	0xbe712f32	-0.2355316
249	0xbe0abe2a	-0.13549104
250	0x3ca0e890	0.019642144
251	0xbe2b03ee	-0.16700718
252	0xbd8111c0	-0.06302214
253	0x3c8966d0	0.016772658
254	0x3e38992c	0.1802718
255	0xbd02bde0	-0.03191936
