checkpoint/pdns_finetune_embed.pt (torch, 47572 bytes, 26 tensors)

0 f4 [16, 64]
000000 da 9e f7 bd 74 25 90 bd 3b 00 99 bb 8b d7 97 bd
       -0.120908454 -0.070383936 -0.004669217 -0.074141584
000010 7f eb bb bd 3a a8 ea bd 93 3f 7d bd 57 ca a0 bd
       -0.09175777 -0.11457868 -0.061828207 -0.07851093
000020 62 29 d7 bd a6 d6 26 be 31 56 9e bd 91 60 0e 3c
       -0.1050594 -0.1629282 -0.077312835 0.008690015
000030 4e cf a6 3b 1c 32 a5 3b 5f b3 c0 bd ab 29 f5 bc
       0.0050906306 0.005041374 -0.09409212 -0.029927095
000040 c1 8e be 3c d4 4b 75 bd a8 d5 09 3e a1 6d 72 3d
       0.02326143 -0.05988677 0.1346041 0.05918658
000050 30 f4 d9 bd 72 e5 f2 bd 94 2e ff bd b1 5b a5 bd
       -0.10642278 -0.118601695 -0.12460056 -0.080741294
000060 96 c6 5f 3d b2 d8 96 3d 7c a0 5b bd ee d7 29 be
       0.054632746 0.0736555 -0.053619847 -0.16586277
000070 52 90 72 3d 44 1f 26 3d 4f 5a 05 be bf 56 c7 3d
       0.059219666 0.04055716 -0.13022731 0.097333424
000080 80 66 6f bd 57 d6 38 3d 55 ee a6 bd 6e f2 bb 3b
       -0.05844736 0.045126285 -0.08150927 0.005735687
000090 bb 6c fa 3d 82 88 8c 3c d7 9b de 3d 1a bd 93 3d
       0.1222777 0.017154936 0.10869568 0.07213803
0000a0 f8 b4 61 bd c1 36 23 bd 0e 68 b0 bd cd 4e a3 3c
       -0.055104226 -0.03984714 -0.08613597 0.019935036
0000b0 94 16 1a be 59 67 45 bd 2d 10 45 be b3 ec 50 3d
       -0.15047675 -0.048194263 -0.19244452 0.051006984
0000c0 26 1a 2d 3c 78 51 5e bc 11 44 b8 bd 27 7e b3 bd
       0.010565316 -0.013569228 -0.08997358 -0.08764296
0000d0 9c ff 0d be 15 8e 56 bd 65 b8 14 bc 62 fd 96 bb
       -0.13867038 -0.052381594 -0.009077166 -0.0046078423
0000e0 68 53 07 3d 63 4e b3 3c ba 70 64 3d 8f f9 bb 3d
       0.033038527 0.021887964 0.055771567 0.09178459
0000f0 8e a2 90 bd 20 88 1b 3e 44 1a 4f bc 9b 14 05 3e
       -0.07062255 0.15188646 -0.01264054 0.12996142
000100 a7 8b 47 bd ee c7 c1 3b ca 86 a3 bd 6f 97 d9 bd
       -0.048717167 0.005913726 -0.07984693 -0.10624587
000110 f4 d8 08 be ba 14 cb bd 74 05 aa bd b0 90 9e bc
       -0.13364011 -0.09916063 -0.08301821 -0.019356102
000120 51 3b 08 3d 9b 8f 2a 3d 39 80 16 3b d0 20 5e bc
       0.033259694 0.04164086 0.002296461 -0.013557628
000130 e7 b2 df 3c 2e c0 de 38 12 ed ef bc c9 74 1f bc
       0.027306987 0.00010621581 -0.029287849 -0.009732434
000140 53 53 21 bc 74 bd 9c bc bf 23 99 3d 3b 1b 88 bd
       -0.009846526 -0.019133307 0.07477521 -0.06645819
000150 c9 59 20 3c 28 11 94 bc e9 bf 10 be cd ae 2c bd
       0.009787031 -0.018074587 -0.14135708 -0.04215889
000160 fb 89 2b 3c ae 1b a3 3d d0 84 01 be 09 79 35 3c
       0.010469909 0.07964264 -0.1264832 0.01107622
000170 37 83 71 3c 7b 5a 06 3d cf e2 83 3d 8f 2e b5 bd
       0.014740757 0.032801133 0.06439745 -0.08846771
000180 1d e2 57 3c 4a a4 bc b8 6a 4d e7 3d e7 6d 63 bd
       0.013176468 -8.99514e-05 0.112940624 -0.055524733
000190 2f 45 cf 3d b4 56 e6 bd c0 a8 d4 3d 09 ab 15 b9
       0.101206176 -0.11247006 0.10383749 -0.00014273463
0001a0 c8 1d 0a be 9b ec c8 3d ca 07 7f bd 56 c6 0a bc
       -0.13487923 0.09810754 -0.062263288 -0.008470139
0001b0 b2 04 40 bc 1b ff ce bc 31 67 fa bd a5 1a 14 3d
       -0.011719869 -0.025268128 -0.122267134 0.036158223
0001c0 e3 8d aa 3d ec 0d fd bd 2e ea 4c 3d 11 f3 1e be
       0.08327844 -0.12356171 0.05002802 -0.1552241
0001d0 74 c8 c0 3d ab 52 3a bd 40 ac 86 3d de 5f 6f bd
       0.094132334 -0.045488995 0.06575823 -0.058441035
0001e0 25 5e 13 bd a0 61 4d 3b b7 eb ea bd d9 54 dd 3d
       -0.035978455 0.0031338707 -0.1147074 0.10807199
0001f0 a2 9a fb bc f1 32 7b 3d 60 cf fb bd 0b cd 44 3d
       -0.030713383 0.06132788 -0.12295413 0.048047107
000200 3c 30 a1 bd 7e 98 b5 3d 45 11 1d 3d df 99 59 3d
       -0.07870528 0.08866976 0.038346548 0.05312526
000210 72 55 3f 3d 1a 16 e4 3d e8 92 e7 3c 11 d7 3c bd
       0.046712346 0.11137028 0.028268293 -0.04610354
000220 24 08 05 3e 49 b3 66 bd ca d4 fe 3c 00 0c 66 3d
       0.12991387 -0.056323323 0.031107325 0.056163788
000230 6a 32 70 3d 32 9d a0 bd fc b2 70 bc d1 d6 8b bc
       0.05864183 -0.078424826 -0.014691111 -0.017070206
000240 70 b1 f1 3d a1 6d a0 bc 57 83 24 be 77 33 ad bc
       0.11801422 -0.019583525 -0.16065727 -0.021142704
000250 ea 73 23 3c 3f 8b 41 3d d0 eb 31 3e 27 00 8c 3d
       0.009976367 0.047251936 0.17375112 0.068359666
000260 3a 8d fa 3d da 76 c0 3d ea 6f 47 3d d3 4f bd 3c
       0.12233968 0.09397669 0.048690714 0.023109352
000270 5b 95 56 3d da 80 dd 3d 3d f4 02 be 0c 37 88 bd
       0.05238853 0.10815592 -0.12788482 -0.06651124
000280 71 70 56 3d 23 01 01 bd a4 ae 19 3d 1c 76 6c 3b
       0.052353326 -0.031495225 0.037520066 0.003608114
000290 ee 2d 1b bd 11 da bf bd b1 14 a9 3d 59 e1 80 3c
       -0.0378856 -0.09367765 0.082559 0.015732454
0002a0 25 45 23 3d 3a 8b 14 bd 03 22 27 3d 89 f6 7e bd
       0.039860863 -0.03626559 0.04080392 -0.062246833
0002b0 07 be e9 bc a8 b6 eb 3d 0d f4 33 3d e5 61 20 be
       -0.028532995 0.11509448 0.043933917 -0.15662344
0002c0 31 74 05 3d 2c 4b 55 bd 0d 08 08 3e a4 90 b3 bd
       0.032581512 -0.052073643 0.13284321 -0.087678224
0002d0 d1 bf 3d be 2a 8e 93 bc 47 9e 24 be 3e 72 42 3d
       -0.18530203 -0.018012125 -0.16076003 0.04747223
0002e0 81 f3 93 bd 4c fb 30 3c a9 26 cd 3d 28 aa fb 3c
       -0.07224179 0.010802101 0.100171395 0.030720785
0002f0 90 34 e8 bd fb 85 35 3d 6f 74 6e bd 21 79 2b 3d
       -0.113381505 0.044317227 -0.05821651 0.041863564
000300 9b ac e1 bc df 19 36 be 3b 7a b1 bd 3a c0 af bc
       -0.027548125 -0.17783307 -0.08665892 -0.021453965
000310 93 6b 0c 3c a0 40 ef 3d 7e 43 09 3e aa 5f e0 bc
       0.00857057 0.11682248 0.13404652 -0.027389366
000320 ba 14 90 bc f7 82 e9 3a f6 d6 fe 3d f8 aa 27 3b
       -0.017588008 0.001781552 0.12443344 0.0025584083
000330 71 b5 a7 3d a7 08 42 bb 09 39 fc bb ec 8e f1 bc
       0.08188904 -0.0029607208 -0.007697229 -0.029487096
000340 04 d3 ca bd 33 c9 ca 3b 5a 47 b9 bd 81 82 5a bd
       -0.09903529 0.0061885356 -0.09046812 -0.053347114
000350 fa 6d be 3d 34 7b d7 bb 51 e2 53 3d 28 ab 1f bc
       0.0929832 -0.0065759663 0.051729504 -0.009745397
000360 de e9 b6 3c d4 43 06 bc 4a 91 d3 bb 52 78 19 bd
       0.022328313 -0.008194882 -0.006456529 -0.037468262
000370 ba f2 58 bd 52 72 9c bc e1 5a a2 bc b9 98 7c bc
       -0.052965857 -0.01909748 -0.019818725 -0.015417271
000380 3f e8 3c bc bf 85 62 bd 12 8d 6a bd 06 ea 55 bc
       -0.011529981 -0.05530333 -0.05726344 -0.013056284
000390 92 a6 dd 3c 2b 21 3a 3d 02 e7 0a be 29 5e 84 3c
       0.027056966 0.045441788 -0.13564685 0.01615818
0003a0 34 be 6e 3d 82 e3 2e 3c 0f 1b 41 3d 37 ab d9 3d
       0.05828686 0.010674359 0.047144946 0.1062836
0003b0 3d af 67 3c 91 ae 8a bd 17 7d 4c 3e 54 f1 95 3d
       0.014140901 -0.06771577 0.19969593 0.0732142
0003c0 4b a8 16 be b3 98 95 bd 49 90 d1 3d 34 7d c2 3d
       -0.14712636 -0.07304516 0.10232598 0.09496537
0003d0 9e bc 80 3d eb dd 98 3d 4f 2b 3a bd 00 87 db bd
       0.06285976 0.074642025 -0.04545146 -0.107191086
0003e0 d6 91 85 bd d0 49 b7 3d 68 ab 61 3c f6 49 66 3d
       -0.065219566 0.089496255 0.013773777 0.05622288
0003f0 ea 09 8b 3c b4 cf b0 bd 07 bf 48 3d ca 1d ce 3c
       0.0169725 -0.08633366 0.049010303 0.025160689

1 f4 [16, 64]
000000 aa 58 be bd 5d 48 c6 3d b5 b2 84 3d cc f7 0a bd
       -0.09294255 0.09681771 0.06479398 -0.033927724
000010 80 bd 53 be 69 6d 58 3e d2 19 a0 3d 21 2a e1 3b
       -0.20677757 0.21135487 0.07817425 0.0068714772
000020 16 62 d2 bd c7 ba 12 3c a3 59 0f 3e e7 19 bb 3b
       -0.10272615 0.008955664 0.13999037 0.005709875
000030 75 58 8c bd 16 74 2b 3e f8 ec 2c 3e d8 2d 5e 3e
       -0.06852809 0.16743502 0.16887271 0.21697176
000040 06 a5 49 3a cc 84 28 3c 97 77 0d bd 04 1c d9 3d
       0.0007692132 0.0102855675 -0.034537878 0.10601047
000050 41 c4 be 3d ec 80 8c 3d 4d 96 6a bc 21 7d 88 bd
       0.09314776 0.068605274 -0.014318061 -0.066644914
000060 6a d2 01 3e 15 d7 03 be cd 92 2f 3e 82 a8 55 3d
       0.12677923 -0.12875016 0.17145844 0.052162655
000070 94 48 5c 3b 59 2c 39 3e 20 a2 9a bd 4c 96 d7 bc
       0.0033612596 0.18083324 -0.07550454 -0.026316784
000080 c0 c9 a6 3d b9 87 25 bd dc 93 82 bd 02 09 12 3e
       0.081439495 -0.04041264 -0.06375858 0.14261249
000090 c3 32 32 bd 21 b1 4a bd 7e b9 49 be 56 57 af 3d
       -0.04350544 -0.04948533 -0.19699666 0.0856158
0000a0 b8 a9 41 be 27 f2 cd bd 95 8b 23 be 4c de 30 bc
       -0.18912399 -0.100559525 -0.15971215 -0.010795187
0000b0 62 fa 86 3d 8f 35 0b 3e 61 74 a1 bd 89 62 a9 bd
       0.065907255 0.1359465 -0.07883526 -0.08270747
0000c0 1c db e9 bd 32 e9 6d bc 95 d4 35 bb 89 73 ba 3d
       -0.11418745 -0.01452093 -0.0027745117 0.09104068
0000d0 3a 5f 17 3d b8 aa d6 bc 9d f0 90 3b 5f 9b c2 3d
       0.03695605 -0.026204452 0.0044232146 0.09502291
0000e0 e7 ad 6b bd cf 5e cb 3d 77 0c d1 bd 4f e0 73 bd
       -0.057538893 0.09930193 -0.102074556 -0.05954009
0000f0 e8 60 cd 3d 55 33 4f 3d 36 72 5e bd ef b6 bf 3d
       0.10028249 0.050586063 -0.05430814 0.09361064
000100 f0 b5 b2 bd 42 83 3d bd bd 59 7e bd b7 b5 b4 3d
       -0.08726108 -0.046267755 -0.0620973 0.08823722
000110 d2 61 a8 3c ce 17 4f be 4f b8 2c be 13 d0 d4 bc
       0.020554457 -0.20223925 -0.16867183 -0.025978124
000120 4c 7f ca 3d dc 1a 28 be 4d 10 3c 3c 44 ad 85 3d
       0.09887561 -0.16416496 0.011478496 0.065271884
000130 08 c0 0a 3b a7 15 90 3d 9a e4 ad 3c 47 cf 0c 3d
       0.0021171588 0.0703538 0.02122717 0.034377363
000140 91 12 11 3d 9a 0c 0d be 1f 85 24 3e 95 b1 3b 3e
       0.035418097 -0.13774338 0.16066407 0.18329461
000150 0a 2e bc bb e0 73 17 3e f1 69 ba 3d 16 d8 cf 3d
       -0.005742793 0.14790297 0.09102238 0.10148637
000160 05 28 62 3d d1 f4 ac bd 25 5b e9 bd 2a dd f7 bd
       0.055213947 -0.084451325 -0.113943376 -0.121027306
000170 d0 7e 23 bc c7 98 88 3c bc 10 c0 3c a2 3f d9 3b
       -0.009978965 0.016674412 0.02344548 0.0066299
000180 49 38 f1 3d 02 e7 5e bd 03 04 12 3d b0 5e 8a bd
       0.11778314 -0.054419525 0.035648357 -0.067563415
000190 ba 13 97 bd fc ae f3 3d 9d 42 a2 bc 38 bd 38 bd
       -0.073768094 0.1189861 -0.019807154 -0.045102328
0001a0 a9 13 a0 bd f2 e9 55 3d c2 a0 e4 bd 30 7f ed 3c
       -0.0781625 0.05222506 -0.111634746 0.028991312
0001b0 f1 18 50 3d 99 d1 88 bd fa fc bc 3d 2a 14 32 3d
       0.050805036 -0.066806026 0.09227939 0.04347626
0001c0 d0 7f c9 bc ea ea 02 3c 1b 66 b7 3c 59 78 3f 3d
       -0.024597079 0.007990578 0.022387555 0.04674563
0001d0 5f 81 66 3d 96 d1 44 3e a6 f2 d4 bd 22 c5 86 3d
       0.05627572 0.19220576 -0.10397844 0.06580569
0001e0 32 c0 24 3e 98 7a 94 bd 6e a2 34 bc cd a0 c2 3d
       0.16088942 -0.072499454 -0.011025054 0.095033266
0001f0 bf 9f b5 bc 97 7e ba bb d6 f1 6f 3e a3 ac 10 bd
       -0.0221709 -0.00569136 0.23432097 -0.03532089
000200 dc b2 ea bd 94 9c 14 3e 37 d2 3d 3d 03 72 73 3d
       -0.11459896 0.14512855 0.046343055 0.059434902
000210 94 27 13 3e 02 83 7b bd ae ab 05 be 6f a2 41 be
       0.14370567 -0.061404236 -0.13053772 -0.1890962
000220 19 5d 17 3e c1 84 8b bd 08 df ce 3d 58 d8 af bd
       0.14781608 -0.0681243 0.101011336 -0.08586186
000230 7d 79 9c 3b 7b 94 0b 3d 23 c5 11 3d 14 25 79 bd
       0.0047752247 0.03407715 0.035588395 -0.060826376
000240 74 38 80 bd f1 04 cc bd 59 87 30 3e 3b d3 3b 3d
       -0.062607676 -0.0996188 0.17239131 0.045855742
000250 0f b1 07 3e 3c cf 2f 3e 1d 11 f3 3d c8 ea 56 3e
       0.13251136 0.17168897 0.118684985 0.20988
000260 98 28 f4 3c 0c f9 3d 3e 93 18 83 3d 32 31 e0 bd
       0.029804513 0.18552035 0.064011715 -0.10946883
000270 d1 d0 10 3d e6 0c 84 bd e1 74 ac bd 8a c5 7d 3d
       0.035355393 -0.06447773 -0.084207304 0.061955966
000280 64 a6 6f 3d b2 bf e3 3c 64 98 08 3e 3d 9c 15 3d
       0.05850829 0.027801368 0.13339382 0.036525954
000290 b2 bd 80 3d f3 1b 4e be 62 2c 96 3d 68 1e a7 bd
       0.062861815 -0.2012785 0.07332684 -0.081600964
0002a0 53 57 b7 bc b0 c8 c1 bd f5 89 51 be 30 b0 e3 bb
       -0.022380507 -0.09462106 -0.20462783 -0.0069484934
0002b0 44 dd 10 3d de b4 13 be d7 37 03 3e ba 9e 09 3e
       0.035367265 -0.14424464 0.1281427 0.13439456
0002c0 66 bb ac 3c 97 00 1d be 4d 16 b6 3d 9c ba 0e 3d
       0.021085452 -0.15332256 0.08890972 0.034845933
0002d0 9d 92 4f be 87 29 ec 3b 90 13 64 be 17 2c 4f bd
       -0.20270772 0.007207099 -0.22273088 -0.050579157
0002e0 cf e0 43 3e 2a 68 dd bd fc 23 26 3d d0 6d 12 bd
       0.19128726 -0.10810883 0.04056166 -0.035749257
0002f0 55 8f ac 3c 15 6d 6a be d5 ef 09 3e 83 bf 11 be
       0.02106444 -0.22893174 0.13470395 -0.14233212
000300 db f3 cf bc 8c 39 e6 bd af 3a 2e bb 8d d6 03 3e
       -0.025384834 -0.11241445 -0.002658527 0.12874813
000310 41 b5 46 3e e1 0e de 3d d9 4f 91 3d 09 28 8e bd
       0.1940508 0.10842682 0.07095308 -0.0694123
000320 46 e3 0c 3e 67 00 98 bd c7 c5 df bc 3b 52 bb bd
       0.13758573 -0.07421952 -0.027315987 -0.091465436
000330 f5 d1 ab bc 29 0c b6 bb b1 58 93 3c fb d7 56 3d
       -0.020974139 -0.005555649 0.017986627 0.05245207
000340 27 3e fd 3d e0 90 dc 3d 29 2f b2 bd 11 27 8d bd
       0.1236537 0.1076982 -0.08700401 -0.06892217
000350 68 96 38 bd 67 ce 5c bd 22 80 b9 bc ff 1a 28 3c
       -0.045065314 -0.053907778 -0.022644106 0.010260343
000360 3a 7f 8b 3d 5a d2 e3 bd b8 25 cd bd 1a 8a 11 3e
       0.06811376 -0.11124106 -0.1001696 0.14212838
000370 02 32 e7 bc fe 0d 67 bd 45 d0 03 3e a8 8e a5 3d
       -0.028222088 -0.05640983 0.12872417 0.0808385
000380 b6 c0 13 3e 43 25 10 be 1f c9 d1 bd ba b0 9e bd
       0.14428982 -0.14076714 -0.10243439 -0.07748552
000390 9f 39 37 be 0e 16 84 bd fe d4 69 bc a4 67 54 bd
       -0.17893074 -0.06449519 -0.014271973 -0.051856652
0003a0 fa 5c 33 3d bd 30 e4 bd 16 63 0a 3e c4 51 60 3d
       0.04378984 -0.111421086 0.13514361 0.054765478
0003b0 4e 98 9e bd da e6 14 3e 90 98 72 3c da d3 2f ba
       -0.077438936 0.14541188 0.014806882 -0.00067072886
0003c0 f3 0b c4 3d 52 13 43 bd e8 de 2d bd f8 18 9c bd
       0.09572592 -0.047625847 -0.042448908 -0.0762195
0003d0 e2 84 1b bd 39 6f d3 3d 04 f2 96 3b 5f 2c ef 3b
       -0.037968524 0.103239484 0.004606487 0.0072989906
0003e0 25 b1 ae bd 8f f2 66 bd 66 89 94 3d 31 be 7a be
       -0.085298814 -0.056383666 0.07252769 -0.24486615
0003f0 d0 b4 a9 bd 49 17 89 3d 3b fe 34 3e a3 52 5a bc
       -0.0828644 0.066938944 0.17675106 -0.013325366

weight f4 [32, 16]
000000 52 15 5b 3e ea 85 2e be 40 d2 ad 3d 50 0d 5a 3d
       0.21394852 -0.17043272 0.08487368 0.053235352
000010 66 f4 35 3e 2c ee ed bd ec 38 c1 bd 9a 8a 75 3e
       0.17769012 -0.11617693 -0.09434685 0.23978654
000020 88 d9 26 bd f8 e7 4f be 94 33 6a be c4 29 af bd
       -0.040734798 -0.20303333 -0.22871238 -0.08552888
000030 c0 9b 14 bd 00 8a aa bd c0 46 6f 3c bc ba cb bd
       -0.036281347 -0.08327103 0.01460427 -0.09947726
000040 20 8c b7 bd e0 27 be bc 5a 3f 24 be ae ca 0d 3e
       -0.089622736 -0.023212373 -0.16039792 0.13846847
000050 d6 c8 3a be 10 b3 be bc e8 6c 5d 3e f4 ba 9c 3d
       -0.18240675 -0.023278743 0.21623576 0.07652846
000060 18 f8 83 3d 10 8c c4 3d 98 ad a7 3d 10 fc 18 be
       0.064438045 0.09597027 0.08187407 -0.14939904
000070 dc 18 65 3e ea 0e 60 be 76 a7 11 3e 9e 92 45 be
       0.22372764 -0.2188069 0.14224038 -0.19294211
000080 b8 80 fe 3d 20 c5 51 bc da 5f 6c be 8a 56 79 3e
       0.12426895 -0.012803346 -0.2308344 0.24349418
000090 98 b3 5b bd 7a f7 79 be d4 f9 70 3e 08 c5 a0 bd
       -0.05363807 -0.24410811 0.23532802 -0.07850081
0000a0 f8 f8 ce 3d 10 1e 85 bd ea c9 2f be 10 6e f9 bd
       0.10106081 -0.064998746 -0.17166868 -0.12179196
0000b0 50 d3 a0 3d 82 d3 57 be b4 1a ad bd a6 e4 08 be
       0.07852805 -0.21076778 -0.08452359 -0.13368472
0000c0 6c 2f cc bd 78 75 46 be a8 65 29 bd d0 6b 84 bc
       -0.099699825 -0.19380748 -0.041356713 -0.01616469
0000d0 34 40 e5 bd c8 aa 5a be 40 c6 8d bc 2c 1b 89 bd
       -0.111938864 -0.2135421 -0.017306447 -0.06694636
0000e0 2e ea 1c be 40 92 c5 bc f4 70 be 3d 50 30 41 be
       -0.15323707 -0.024117589 0.09298888 -0.18866086
0000f0 ec 92 b0 bd a2 fd 3c 3e c8 a9 08 3d 58 9c 26 3d
       -0.08621773 0.18456128 0.03336504 0.040676445
000100 a0 f3 94 3d 6c ce d4 bd 12 50 7c 3e 4c d2 e3 3d
       0.0727303 -0.10390934 0.2463992 0.11124095
000110 50 23 10 3d c0 2f b9 bb 20 7c 34 bc e8 d2 76 bd
       0.035189927 -0.005651444 -0.011015922 -0.06025973
000120 7c e7 09 3e 00 2d 8e 3c b0 41 b2 3c 50 b1 b6 3c
       0.1346721 0.017355442 0.021759838 0.022301346
000130 38 6e 56 bd b6 3b 24 be a0 86 91 bd 2e ca 38 3e
       -0.052351207 -0.16038403 -0.07105756 0.18045875
000140 80 12 02 be dc b7 c9 bd 68 24 7f be 32 0b 55 be
       -0.1270237 -0.098495215 -0.24916232 -0.20805052
000150 d8 f4 52 bd 04 1d cb 3d 9a 7f 59 3e f8 9b 17 3e
       -0.051503032 0.09917644 0.21240082 0.14805591
000160 a0 e4 cf 3c 80 c4 04 3c 08 ba cc 3d 7c 81 13 be
       0.025377572 0.00810349 0.0999642 -0.14404863
000170 0e 96 09 be 18 4b 1f 3d 40 84 03 bd f2 80 29 be
       -0.13436148 0.038889974 -0.032108545 -0.16553095
000180 d0 fd 8c 3d e0 59 48 bc 60 a4 39 3d 28 3c 1b 3d
       0.068843484 -0.012228459 0.045322776 0.037899166
000190 c8 d7 b8 bd 40 36 6a be c6 12 3d 3e 0a 83 53 3e
       -0.09025532 -0.22872257 0.18464193 0.20655456
0001a0 00 4e 09 3e d8 37 87 3d 12 39 3a be f8 91 18 3e
       0.13408661 0.06602448 -0.18185833 0.14899433
0001b0 4e 0a 4b 3e 04 35 55 3e c6 c0 7b be 4c e4 0a 3e
       0.1982815 0.20821005 -0.24585256 0.13563651
0001c0 f0 ba 12 3d 98 07 7a 3e 6e 87 4b 3e c8 33 3c 3d
       0.03582281 0.2441696 0.19875881 0.04594782
0001d0 38 07 17 3e ac 3b 04 3e c0 f2 9f 3c 5c bb 80 3d
       0.14748847 0.12913388 0.019524932 0.06285736
0001e0 f4 40 95 bd 08 f5 2a 3d fc 3f fe bd 3e 46 2b be
       -0.072877795 0.041737586 -0.12414548 -0.16726014
0001f0 f6 5a 08 be 50 f0 fd 3d d0 56 bf 3d 8c c8 e3 bd
       -0.13315949 0.123993516 0.0934273 -0.11122236
000200 28 6f e2 bd 70 fc a5 3c 00 34 70 3b 80 1f 6e 3d
       -0.110563576 0.020261973 0.0036652088 0.05813551
000210 5a bd 5a be 82 79 33 3e 1c 36 be bd 6c 22 c0 bd
       -0.21361294 0.1752682 -0.09287664 -0.093815655
000220 50 70 25 be cc d1 3e 3e 18 c7 09 be 7e a1 61 be
       -0.16156125 0.18634719 -0.13454854 -0.2203426
000230 ca 3b 59 3e 9c 58 ea bd 74 2b 7a be d8 66 41 3d
       0.21214214 -0.11442682 -0.24430639 0.04721722
000240 88 ab 36 bd 7c 3f 32 be 54 a1 a8 3d f8 e8 08 3d
       -0.04459718 -0.1740703 0.08233896 0.0334253
000250 10 c0 42 3e de 1c 6b be 02 21 08 be ec 4c fa bd
       0.19018579 -0.2296023 -0.13293841 -0.12221703
000260 d0 5b 88 3d 20 83 8f 3d 38 f4 7b 3e 00 34 9a 3d
       0.06658137 0.07007432 0.24604881 0.075294495
000270 24 4c fd 3d 90 82 d4 3d 00 04 00 bd a0 13 51 3d
       0.12368038 0.10376465 -0.031253815 0.051044106
000280 a6 30 0c 3e ec 42 30 3e e0 3d 10 3e a8 16 ff 3d
       0.13690433 0.17213029 0.14086103 0.12455493
000290 52 d4 64 3e 88 02 78 3d 40 8c 37 be 42 25 77 3e
       0.22346619 0.06054929 -0.17924595 0.24135306
0002a0 e0 f0 ad 3c 7a e8 71 be 00 41 9d 3a 40 cc 87 bc
       0.021233022 -0.23623839 0.0011997521 -0.016576886
0002b0 d0 ab d0 bc 28 93 32 3e 60 5c 94 bc 44 e1 c8 3d
       -0.025472552 0.17438948 -0.018110454 0.09808591
0002c0 00 62 1b 3b 00 bf ad 3a 44 1b 8d 3d 54 ef cc bd
       0.0023709536 0.0013255775 0.06889966 -0.10006586
0002d0 28 21 20 bd 3e 3e 2c 3e 3a be 3e be e8 7c fd 3d
       -0.03909412 0.16820619 -0.18627253 0.123773396
0002e0 10 72 f5 bd 58 6c 11 be 52 1f 47 3e b8 46 77 be
       -0.11984646 -0.14201486 0.19445542 -0.24148071
0002f0 cc 32 d3 3d 24 5b 65 3e 50 9d fd bd 0c 4f e6 bd
       0.10312423 0.22398049 -0.123835206 -0.11245546
000300 e0 36 36 bc 48 20 7e be fe 3f 01 3e 1c 0e 46 be
       -0.011121482 -0.24817002 0.12622067 -0.1934132
000310 fa 01 4b be f8 7e 2f 3e d6 52 6d be 40 4a 13 bc
       -0.19824973 0.17138278 -0.2317613 -0.008989871
000320 b0 e9 57 be 56 8e 23 3e 40 2b bc 3b 40 ac 30 be
       -0.21085238 0.15972266 0.0057424605 -0.17253208
000330 80 55 2f bb 24 cf 11 3e b8 48 5d 3d 0e f8 12 3e
       -0.0026753843 0.14239174 0.054024428 0.14352438
000340 5e 3f 78 be 84 0e a6 bd 80 40 b5 3d 14 c6 bd bd
       -0.24242923 -0.081082374 0.08850193 -0.09266296
000350 68 f7 72 3e f8 fe 80 3d 08 b6 91 bd 4c ed e2 3d
       0.2372719 0.062986314 -0.07114798 0.11080417
000360 54 3b 0a be 84 a9 f8 bd 36 23 01 be 4a 63 57 be
       -0.13499194 -0.121417075 -0.12611088 -0.2103397
000370 90 8a 70 3e 90 95 21 3d fa af 29 be fe 02 37 be
       0.23490357 0.039449275 -0.16571036 -0.17872235
000380 2a 7b 2d 3e 8e a5 68 be e8 c6 51 3e 40 24 da 3c
       0.16941515 -0.22719404 0.20486033 0.026628613
000390 e0 50 c0 bd 00 93 0e 3c 86 21 39 be e2 0c 4e 3e
       -0.09390426 0.00870204 -0.18079194 0.20122102
0003a0 00 60 17 39 7a 76 50 be 80 d3 bc 3b 9c ea 60 be
       0.00014436245 -0.20357695 0.0057625175 -0.21964496
0003b0 5c 3f 9a 3d d2 95 2b be a0 24 1e 3c 2c 22 64 be
       0.07531616 -0.1675637 0.009652287 -0.2227866
0003c0 48 3d 29 bd 92 ea 4f 3e 56 04 6b 3e 30 88 10 be
       -0.041318208 0.20304325 0.22950873 -0.14114451
0003d0 80 7c 01 3d 38 aa 5a bd 94 68 48 be 14 13 82 bd
       0.031612873 -0.05338499 -0.19571143 -0.06351295
0003e0 b6 36 65 3e 50 08 83 3c e0 8c 83 3c d0 d1 1a be
       0.22384152 0.015995175 0.016058385 -0.151191
0003f0 d6 14 03 3e f0 f5 37 bd 84 49 6f 3e e4 a7 6f be
       0.12800917 -0.04491228 0.23367888 -0.23403889

bias f4 [32]
000000 bc b8 d7 3d a8 7c c5 3d 70 e4 a9 3d f8 7e 7c be
       0.10533282 0.09642917 0.08295524 -0.2465781
000010 86 d3 7e 3e 94 9f 60 be 98 ab b3 bd 40 62 7f 3d
       0.24885377 -0.21935874 -0.08772963 0.062349558
000020 90 04 34 bd 74 cd 0e be a8 64 8a bd 9e 56 11 3e
       -0.043949664 -0.13945562 -0.0675748 0.14193198
000030 68 ba 6b 3d d4 ce 61 be da b8 2b be f4 36 0e 3e
       0.057550818 -0.22051555 -0.16769734 0.1388815
000040 5c 1d cb 3d bc f6 80 bd c0 3a 0f 3d 58 2a 00 be
       0.09917709 -0.06297061 0.034968138 -0.12516153
000050 dc 38 17 be 92 9d 3f be d8 c7 2b 3d 98 f6 5a bd
       -0.14767784 -0.18712452 0.041938633 -0.053457826
000060 6e de 57 be 90 f7 a9 3c be 83 4e 3e 1e 56 26 be
       -0.21080944 0.02074793 0.20167443 -0.16243789
000070 16 8f 76 3e a2 ff 24 be 14 66 60 3e 0c ca 20 be
       0.2407802 -0.16113141 0.2191394 -0.15702075

weight f4 [32]
000000 00 00 80 3f 00 00 80 3f 00 00 80 3f 00 00 80 3f
       1.0 1.0 1.0 1.0
000010 00 00 80 3f 00 00 80 3f 00 00 80 3f 00 00 80 3f
       1.0 1.0 1.0 1.0
000020 00 00 80 3f 00 00 80 3f 00 00 80 3f 00 00 80 3f
       1.0 1.0 1.0 1.0
000030 00 00 80 3f 00 00 80 3f 00 00 80 3f 00 00 80 3f
       1.0 1.0 1.0 1.0
000040 00 00 80 3f 00 00 80 3f 00 00 80 3f 00 00 80 3f
       1.0 1.0 1.0 1.0
000050 00 00 80 3f 00 00 80 3f 00 00 80 3f 00 00 80 3f
       1.0 1.0 1.0 1.0
000060 00 00 80 3f 00 00 80 3f 00 00 80 3f 00 00 80 3f
       1.0 1.0 1.0 1.0
000070 00 00 80 3f 00 00 80 3f 00 00 80 3f 00 00 80 3f
       1.0 1.0 1.0 1.0

bias f4 [32]
000000 00 00 00 00 00 00 00 00 00 00 00 00 00 00 00 00
       0.0 0.0 0.0 0.0
000010 00 00 00 00 00 00 00 00 00 00 00 00 00 00 00 00
       0.0 0.0 0.0 0.0
000020 00 00 00 00 00 00 00 00 00 00 00 00 00 00 00 00
       0.0 0.0 0.0 0.0
000030 00 00 00 00 00 00 00 00 00 00 00 00 00 00 00 00
       0.0 0.0 0.0 0.0
000040 00 00 00 00 00 00 00 00 00 00 00 00 00 00 00 00
       0.0 0.0 0.0 0.0
000050 00 00 00 00 00 00 00 00 00 00 00 00 00 00 00 00
       0.0 0.0 0.0 0.0
000060 00 00 00 00 00 00 00 00 00 00 00 00 00 00 00 00
       0.0 0.0 0.0 0.0
000070 00 00 00 00 00 00 00 00 00 00 00 00 00 00 00 00
       0.0 0.0 0.0 0.0

running_mean f4 [32]
000000 00 00 00 00 00 00 00 00 00 00 00 00 00 00 00 00
       0.0 0.0 0.0 0.0
000010 00 00 00 00 00 00 00 00 00 00 00 00 00 00 00 00
       0.0 0.0 0.0 0.0
000020 00 00 00 00 00 00 00 00 00 00 00 00 00 00 00 00
       0.0 0.0 0.0 0.0
000030 00 00 00 00 00 00 00 00 00 00 00 00 00 00 00 00
       0.0 0.0 0.0 0.0
000040 00 00 00 00 00 00 00 00 00 00 00 00 00 00 00 00
       0.0 0.0 0.0 0.0
000050 00 00 00 00 00 00 00 00 00 00 00 00 00 00 00 00
       0.0 0.0 0.0 0.0
000060 00 00 00 00 00 00 00 00 00 00 00 00 00 00 00 00
       0.0 0.0 0.0 0.0
000070 00 00 00 00 00 00 00 00 00 00 00 00 00 00 00 00
       0.0 0.0 0.0 0.0

running_var f4 [32]
000000 00 00 80 3f 00 00 80 3f 00 00 80 3f 00 00 80 3f
       1.0 1.0 1.0 1.0
000010 00 00 80 3f 00 00 80 3f 00 00 80 3f 00 00 80 3f
       1.0 1.0 1.0 1.0
000020 00 00 80 3f 00 00 80 3f 00 00 80 3f 00 00 80 3f
       1.0 1.0 1.0 1.0
000030 00 00 80 3f 00 00 80 3f 00 00 80 3f 00 00 80 3f
       1.0 1.0 1.0 1.0
000040 00 00 80 3f 00 00 80 3f 00 00 80 3f 00 00 80 3f
       1.0 1.0 1.0 1.0
000050 00 00 80 3f 00 00 80 3f 00 00 80 3f 00 00 80 3f
       1.0 1.0 1.0 1.0
000060 00 00 80 3f 00 00 80 3f 00 00 80 3f 00 00 80 3f
       1.0 1.0 1.0 1.0
000070 00 00 80 3f 00 00 80 3f 00 00 80 3f 00 00 80 3f
       1.0 1.0 1.0 1.0

weight f4 [64, 32]
000000 7e 76 e4 bd 9f a0 a9 3d 82 0b 8c 3c c0 45 e5 3b
       -0.11155413 0.08282589 0.017095331 0.0069968402
000010 91 79 72 bd b7 db 8a 3c e9 a8 21 be b5 38 e4 3d
       -0.059197966 0.016950471 -0.1578709 0.111436285
000020 79 da a0 3d 67 bd ad 3d eb 76 d4 3d 7f dc 95 3d
       0.0785417 0.08483391 0.10374244 0.07317447
000030 a0 c1 59 3d 05 90 07 be 82 c7 09 3e 46 1c 08 3e
       0.05316317 -0.13238533 0.13455012 0.13292035
000040 e8 82 2b 3e 4b c5 33 3e dd 07 16 be c6 db d1 bd
       0.16749156 0.1755573 -0.14651437 -0.102469966
000050 9f 1f f0 bb 99 6c a6 bd c0 3a de bd 97 4b be 3d
       -0.0073279883 -0.08126182 -0.108510494 0.09291761
000060 85 29 63 bb 1d ef fa 3d fa cf 10 be 03 67 1f be
       -0.0034662199 0.122526385 -0.14141837 -0.1556664
000070 5e b5 31 be 2b 39 e3 bc 0d 1d 8c 3c 82 66 df 3d
       -0.17354342 -0.02773722 0.017103696 0.10908224
000080 71 77 05 bd 5f 05 fa bd 2b 93 fe bd 01 51 4b 3d
       -0.03258461 -0.12208056 -0.12430414 0.0496378
000090 ef 7e f9 bd 3c 90 ff bd a6 e6 f6 3d 7f 90 fa 3d
       -0.12182414 -0.124786824 0.120557114 0.12234592
0000a0 49 1f 03 bd 90 ba 13 3e e3 02 84 3c 8e 7e 90 bd
       -0.032012258 0.14426637 0.016114658 -0.070553884
0000b0 f5 44 0c bd 08 91 92 bc 07 76 27 3e 06 14 2a be
       -0.03424545 -0.017891422 0.16353618 -0.16609201
0000c0 75 fd 30 be a8 14 68 bd e8 03 15 be 7b 60 07 be
       -0.17284186 -0.056660324 -0.14552271 -0.13220398
0000d0 44 c9 b2 bd 03 bf 77 bd a1 48 7d bd 6d d8 0e 3d
       -0.087297946 -0.060484897 -0.061836842 0.03487437
0000e0 54 9e 9d bd 38 aa b0 3d fb 71 b0 b9 6d 7c b1 bc
       -0.07696214 0.08626217 -0.00033654258 -0.021665776
0000f0 49 0b d8 bd dc 20 bb bd b0 34 d3 3d 63 67 29 3c
       -0.105490275 -0.09137127 0.10312784 0.010339591
000100 5f a2 93 3d 99 00 22 3e bd 16 28 be a9 c2 13 3e
       0.07208704 0.1582054 -0.16414924 0.14429726
000110 4c fe 20 be 55 5c b5 bd 28 49 36 bb 90 0b 23 3e
       -0.15722007 -0.088555016 -0.00278146 0.1592238
000120 50 f1 21 3e 2c b3 c6 bd 60 33 e1 bd b1 4f b5 bd
       0.1581471 -0.09702143 -0.10996127 -0.088530906
000130 2e c9 1d 3e f3 e6 03 be 4a 3a 02 be 27 f8 11 3e
       0.15408775 -0.12881069 -0.12717548 0.14254819
000140 36 ec 04 3d 79 dc 0d 3d b6 5e 2a be 03 8c b2 bd
       0.03245183 0.034634087 -0.16637692 -0.08718111
000150 85 b3 86 3d f8 1a b9 3d d4 d6 63 3d 5a ef 3a bd
       0.065772094 0.09038347 0.055624798 -0.04563842
000160 13 34 84 bb 93 ef c4 3d 3e 9c 0a be b7 47 0d 3e
       -0.004034528 0.09616008 -0.13536164 0.13796888
000170 af 25 27 3c dc 1a 4c 3c c6 a5 f6 bd 9c 7b a2 3d
       0.010201856 0.012457576 -0.120433375 0.07933733
000180 74 a4 24 3e 94 c5 15 3e b8 b6 4a 3d 06 cb f5 bd
       0.16078359 0.14626151 0.04949066 -0.12001614
000190 c2 01 61 bd 09 c8 1a be 52 d6 24 bd f2 6f 2b be
       -0.054933317 -0.1511537 -0.040243454 -0.16741922
0001a0 fb 69 dc bd ed a6 56 3d 7b 22 a0 bd 38 10 08 3e
       -0.10762402 0.052405287 -0.07819077 0.13287437
0001b0 49 0d 45 bd 6a 44 13 3e 1c 1b a9 bc 83 27 78 3d
       -0.048108373 0.14381567 -0.02064281 0.060584556
0001c0 22 4a 87 3c 19 6c 0f 3e f9 28 a3 bc 8a 25 a9 bc
       0.016514841 0.1400608 -0.019916998 -0.020647783
0001d0 ff bd e6 3d bf 22 0b be 22 c4 ec 3c 8c a8 d6 bd
       0.11266708 -0.13587473 0.028902117 -0.104813665
0001e0 a9 9a 11 be 42 71 f0 bd 74 e6 14 3e b9 e1 f2 bd
       -0.14219154 -0.11740352 0.14541036 -0.118594594
0001f0 67 b6 01 3e a7 9a ab bd 83 c1 2e 3e 8f c6 ba 3a
       0.12667237 -0.08379107 0.17066006 0.0014249849
000200 e1 a4 3b 3d 7a 90 f7 3d b4 89 32 3e 51 cb 19 3e
       0.045811538 0.120881036 0.17435342 0.15018965
000210 72 ab 33 be 16 1e 54 bd aa cc 28 bd d2 ce 1b 3e
       -0.1754587 -0.051786505 -0.041210808 0.15215614
000220 4c 96 1a be 27 e0 35 bd 73 d5 69 bc d2 e4 77 3d
       -0.15096396 -0.04440322 -0.014272082 0.060520954
000230 e7 a3 a9 3d 0b 22 f6 3d fc a7 30 bc 97 d4 11 3e
       0.08283215 0.12018212 -0.010782238 0.14241253
000240 cd 51 20 bc b1 31 c9 3d 3e cd 62 bb c9 f9 6c 3c
       -0.009785128 0.09823931 -0.0034607197 0.01446385
000250 30 be 9c 3d ae 28 4a bd 07 ec af 3c 4c 37 1d be
       0.07653463 -0.0493552 0.021474851 -0.15353125
000260 e1 f2 b7 bc 75 84 d3 bd 70 a8 3f bd 64 b2 0f 3e
       -0.02245468 -0.103279985 -0.046791494 0.14032894
000270 db 04 4f bc fd 0f 3f 3d be 03 51 bd ca 82 81 3d
       -0.012635435 0.046646107 -0.05102896 0.06323774
000280 3f 4b a5 bd 60 5d 1b 3e ff b9 eb 3c 47 fc b8 3d
       -0.08070993 0.15172338 0.028775213 0.09032493
000290 c3 8c 5a 3c 82 3d 5d bd 87 39 d9 3b b8 1a 04 3e
       0.013339224 -0.054013737 0.0066291722 0.12900817
0002a0 43 01 e9 3d c4 61 c2 bd 52 48 90 bd c9 a5 aa 3d
       0.11377194 -0.094913036 -0.07045044 0.08332402
0002b0 65 80 b3 bd a7 83 f0 3d 36 fe ef bb d6 e9 6b 3d
       -0.08764724 0.11743861 -0.0073240055 0.05759605
0002c0 aa 6d c0 3d 3b 17 51 bd c3 e5 22 3e 86 a9 94 bd
       0.09395917 -0.051047545 0.1590796 -0.072588965
0002d0 1c 7e 84 3d d3 04 28 3e 27 7f e2 3d af 22 99 3d
       0.06469366 0.1640809 0.11059409 0.074773185
0002e0 e1 ab d9 bd 36 06 e9 bd fb fb 9a bd 03 76 32 3d
       -0.106284864 -0.11378138 -0.07567593 0.043569576
0002f0 ef f0 33 bd 39 6f ab bd d8 5a 0a be 46 90 e1 bd
       -0.043930944 -0.083708234 -0.13511217 -0.11013846
000300 54 f0 d2 3a 91 ca 02 bc 15 8b 00 be f9 53 84 3d
       0.0016093352 -0.007982866 -0.12553056 0.06461329
000310 1a 15 06 be 6e 6c ca bd 03 19 20 be a6 e3 03 3e
       -0.13093987 -0.098839626 -0.15634541 0.1287981
000320 d8 bc b9 3d c8 58 0b 3e 35 37 c0 bc 4d ab 30 be
       0.09069222 0.13608086 -0.023463825 -0.17252846
000330 5c dc 1a 3d a2 e4 64 bd a2 47 9f bd 15 3f 29 bd
       0.037807807 -0.055882104 -0.07777335 -0.041319925
000340 ad 4f ef 3d 14 ed 30 3e b1 fb 73 bd 9a 7a 90 bd
       0.11685119 0.17277938 -0.059566204 -0.070546344
000350 b4 18 83 bc 16 56 e0 bd 39 7a 97 bc 5b 19 6a bd
       -0.01600299 -0.109539196 -0.018490897 -0.057153087
000360 d3 ef 18 3e 92 82 5b bd 54 2d 0e 3d f5 9a f2 3b
       0.14935236 -0.05359132 0.034711197 0.007403726
000370 51 5f 34 be b8 18 00 be c6 f3 c4 3d 69 70 31 3e
       -0.17614485 -0.1250943 0.096168086 0.17328037
000380 a2 81 11 3e 62 e0 04 3e 55 83 c8 bd cc e7 ca bc
       0.14209607 0.1297622 -0.097906746 -0.024768732
000390 9c 4b 0f 3e 63 ee f1 bd 9e 6f 1a be 6a f1 17 be
       0.13993686 -0.11813047 -0.15081641 -0.14838186
0003a0 21 73 07 3e 62 d8 3c 3d d6 14 02 be 27 c0 10 be
       0.13227512 0.046104796 -0.12703261 -0.141358
0003b0 b3 d7 55 bd 40 65 2d be 96 2c 36 3d 14 58 ad 3d
       -0.05220766 -0.16933155 0.044476114 0.08464065
0003c0 fb 6a dd 3d bf d9 e9 3d cc eb c2 bd 91 61 2d be
       0.108114205 0.11418485 -0.09517631 -0.1693175
0003d0 8a 64 9e bd cd 98 a4 3d 19 cd 1f be 2f 48 69 3d
       -0.0773402 0.08036957 -0.15605582 0.056953605
0003e0 b2 78 a8 3c 8e 92 1a bd 0a 53 9c bd 53 e4 14 3c
       0.020565365 -0.03773742 -0.07633026 0.00908764
0003f0 57 e0 10 3e 38 69 15 3e f4 fc b1 bd e2 7d e0 bc
       0.14148079 0.14590919 -0.08690825 -0.027403776

bias f4 [64]
000000 75 d5 89 3d 7c d3 75 bd 10 30 2b be 39 72 09 3e
       0.06730167 -0.06001614 -0.16717553 0.13422479
000010 c8 ca f5 bb 1a 7d dd bd 15 f8 c8 bd cd dd b9 3d
       -0.00750098 -0.10814877 -0.09812943 0.09075508
000020 a1 7a bb bd b1 27 4d bd 96 76 8f bd 8e 4b 45 bd
       -0.09154249 -0.05008668 -0.0700504 -0.048167758
000030 e2 53 a6 bd 2c 42 a6 b8 de 56 9f 3c a9 c3 76 bd
       -0.08121468 -7.927822e-05 0.019450601 -0.06024519
000040 b3 a5 36 bd b4 ff 03 3d c9 b7 99 3d 23 05 0c 3e
       -0.044591617 0.03222628 0.07505757 0.13673835
000050 75 fe f2 bd ca 55 b3 bb 33 7c 58 3d 69 3e ff bd
       -0.1186494 -0.0054728733 0.05285282 -0.12463076
000060 58 f0 e0 3d 2a e7 c9 bd 04 53 90 3d 29 36 dd 3d
       0.10983342 -0.09858544 0.07047084 0.10801346
000070 54 df e9 bd 86 a6 db 3d e1 73 0e be 32 0d 8c bd
       -0.114195496 0.10725121 -0.13911392 -0.06838454
000080 0d d9 80 3d fa 89 2c 3d 9b 8e d2 3d 07 b8 31 3e
       0.06291399 0.042123772 0.10281106 0.17355357
000090 b8 5f dc 3c 7a a7 f8 3d f3 ee b0 bd 37 ba 5a 3d
       0.026901111 0.121413186 -0.08639326 0.053400245
0000a0 68 f0 dd 3d 8e 09 a9 bd b2 90 9b 3d 41 13 e8 bd
       0.108368695 -0.082537755 0.07595958 -0.113317974
0000b0 3f 55 36 3d eb 91 30 3e e3 b4 9c bd c9 01 cf 3d
       0.04451489 0.17243163 -0.07651689 0.10107762
0000c0 46 b3 fa 3d d5 0c eb 3d bf 8c 61 3c 3d cf 27 3e
       0.12241225 0.11477057 0.013766467 0.16387649
0000d0 e1 f1 9d 3d 68 7b f5 bb 20 f8 e2 bd 91 c9 94 bd
       0.0771215 -0.007491518 -0.11082482 -0.07265008
0000e0 e5 bd 33 be 6a 6a cf bb c1 38 2f 3e 3e 9b 1e bd
       -0.17552908 -0.006329824 0.17111494 -0.03872227
0000f0 65 28 0f be a4 51 fa 3d 62 3e 9b bd 65 cf 6d 3d
       -0.13980253 0.12222603 -0.07580258 0.058059115

weight f4 [64]
000000 00 00 80 3f 00 00 80 3f 00 00 80 3f 00 00 80 3f
       1.0 1.0 1.0 1.0
000010 00 00 80 3f 00 00 80 3f 00 00 80 3f 00 00 80 3f
       1.0 1.0 1.0 1.0
000020 00 00 80 3f 00 00 80 3f 00 00 80 3f 00 00 80 3f
       1.0 1.0 1.0 1.0
000030 00 00 80 3f 00 00 80 3f 00 00 80 3f 00 00 80 3f
       1.0 1.0 1.0 1.0
000040 00 00 80 3f 00 00 80 3f 00 00 80 3f 00 00 80 3f
       1.0 1.0 1.0 1.0
000050 00 00 80 3f 00 00 80 3f 00 00 80 3f 00 00 80 3f
       1.0 1.0 1.0 1.0
000060 00 00 80 3f 00 00 80 3f 00 00 80 3f 00 00 80 3f
       1.0 1.0 1.0 1.0
000070 00 00 80 3f 00 00 80 3f 00 00 80 3f 00 00 80 3f
       1.0 1.0 1.0 1.0
000080 00 00 80 3f 00 00 80 3f 00 00 80 3f 00 00 80 3f
       1.0 1.0 1.0 1.0
000090 00 00 80 3f 00 00 80 3f 00 00 80 3f 00 00 80 3f
       1.0 1.0 1.0 1.0
0000a0 00 00 80 3f 00 00 80 3f 00 00 80 3f 00 00 80 3f
       1.0 1.0 1.0 1.0
0000b0 00 00 80 3f 00 00 80 3f 00 00 80 3f 00 00 80 3f
       1.0 1.0 1.0 1.0
0000c0 00 00 80 3f 00 00 80 3f 00 00 80 3f 00 00 80 3f
       1.0 1.0 1.0 1.0
0000d0 00 00 80 3f 00 00 80 3f 00 00 80 3f 00 00 80 3f
       1.0 1.0 1.0 1.0
0000e0 00 00 80 3f 00 00 80 3f 00 00 80 3f 00 00 80 3f
       1.0 1.0 1.0 1.0
0000f0 00 00 80 3f 00 00 80 3f 00 00 80 3f 00 00 80 3f
       1.0 1.0 1.0 1.0

bias f4 [64]
000000 00 00 00 00 00 00 00 00 00 00 00 00 00 00 00 00
       0.0 0.0 0.0 0.0
000010 00 00 00 00 00 00 00 00 00 00 00 00 00 00 00 00
       0.0 0.0 0.0 0.0
000020 00 00 00 00 00 00 00 00 00 00 00 00 00 00 00 00
       0.0 0.0 0.0 0.0
000030 00 00 00 00 00 00 00 00 00 00 00 00 00 00 00 00
       0.0 0.0 0.0 0.0
000040 00 00 00 00 00 00 00 00 00 00 00 00 00 00 00 00
       0.0 0.0 0.0 0.0
000050 00 00 00 00 00 00 00 00 00 00 00 00 00 00 00 00
       0.0 0.0 0.0 0.0
000060 00 00 00 00 00 00 00 00 00 00 00 00 00 00 00 00
       0.0 0.0 0.0 0.0
000070 00 00 00 00 00 00 00 00 00 00 00 00 00 00 00 00
       0.0 0.0 0.0 0.0
000080 00 00 00 00 00 00 00 00 00 00 00 00 00 00 00 00
       0.0 0.0 0.0 0.0
000090 00 00 00 00 00 00 00 00 00 00 00 00 00 00 00 00
       0.0 0.0 0.0 0.0
0000a0 00 00 00 00 00 00 00 00 00 00 00 00 00 00 00 00
       0.0 0.0 0.0 0.0
0000b0 00 00 00 00 00 00 00 00 00 00 00 00 00 00 00 00
       0.0 0.0 0.0 0.0
0000c0 00 00 00 00 00 00 00 00 00 00 00 00 00 00 00 00
       0.0 0.0 0.0 0.0
0000d0 00 00 00 00 00 00 00 00 00 00 00 00 00 00 00 00
       0.0 0.0 0.0 0.0
0000e0 00 00 00 00 00 00 00 00 00 00 00 00 00 00 00 00
       0.0 0.0 0.0 0.0
0000f0 00 00 00 00 00 00 00 00 00 00 00 00 00 00 00 00
       0.0 0.0 0.0 0.0

running_mean f4 [64]
000000 00 00 00 00 00 00 00 00 00 00 00 00 00 00 00 00
       0.0 0.0 0.0 0.0
000010 00 00 00 00 00 00 00 00 00 00 00 00 00 00 00 00
       0.0 0.0 0.0 0.0
000020 00 00 00 00 00 00 00 00 00 00 00 00 00 00 00 00
       0.0 0.0 0.0 0.0
000030 00 00 00 00 00 00 00 00 00 00 00 00 00 00 00 00
       0.0 0.0 0.0 0.0
000040 00 00 00 00 00 00 00 00 00 00 00 00 00 00 00 00
       0.0 0.0 0.0 0.0
000050 00 00 00 00 00 00 00 00 00 00 00 00 00 00 00 00
       0.0 0.0 0.0 0.0
000060 00 00 00 00 00 00 00 00 00 00 00 00 00 00 00 00
       0.0 0.0 0.0 0.0
000070 00 00 00 00 00 00 00 00 00 00 00 00 00 00 00 00
       0.0 0.0 0.0 0.0
000080 00 00 00 00 00 00 00 00 00 00 00 00 00 00 00 00
       0.0 0.0 0.0 0.0
000090 00 00 00 00 00 00 00 00 00 00 00 00 00 00 00 00
       0.0 0.0 0.0 0.0
0000a0 00 00 00 00 00 00 00 00 00 00 00 00 00 00 00 00
       0.0 0.0 0.0 0.0
0000b0 00 00 00 00 00 00 00 00 00 00 00 00 00 00 00 00
       0.0 0.0 0.0 0.0
0000c0 00 00 00 00 00 00 00 00 00 00 00 00 00 00 00 00
       0.0 0.0 0.0 0.0
0000d0 00 00 00 00 00 00 00 00 00 00 00 00 00 00 00 00
       0.0 0.0 0.0 0.0
0000e0 00 00 00 00 00 00 00 00 00 00 00 00 00 00 00 00
       0.0 0.0 0.0 0.0
0000f0 00 00 00 00 00 00 00 00 00 00 00 00 00 00 00 00
       0.0 0.0 0.0 0.0

running_var f4 [64]
000000 00 00 80 3f 00 00 80 3f 00 00 80 3f 00 00 80 3f
       1.0 1.0 1.0 1.0
000010 00 00 80 3f 00 00 80 3f 00 00 80 3f 00 00 80 3f
       1.0 1.0 1.0 1.0
000020 00 00 80 3f 00 00 80 3f 00 00 80 3f 00 00 80 3f
       1.0 1.0 1.0 1.0
000030 00 00 80 3f 00 00 80 3f 00 00 80 3f 00 00 80 3f
       1.0 1.0 1.0 1.0
000040 00 00 80 3f 00 00 80 3f 00 00 80 3f 00 00 80 3f
       1.0 1.0 1.0 1.0
000050 00 00 80 3f 00 00 80 3f 00 00 80 3f 00 00 80 3f
       1.0 1.0 1.0 1.0
000060 00 00 80 3f 00 00 80 3f 00 00 80 3f 00 00 80 3f
       1.0 1.0 1.0 1.0
000070 00 00 80 3f 00 00 80 3f 00 00 80 3f 00 00 80 3f
       1.0 1.0 1.0 1.0
000080 00 00 80 3f 00 00 80 3f 00 00 80 3f 00 00 80 3f
       1.0 1.0 1.0 1.0
000090 00 00 80 3f 00 00 80 3f 00 00 80 3f 00 00 80 3f
       1.0 1.0 1.0 1.0
0000a0 00 00 80 3f 00 00 80 3f 00 00 80 3f 00 00 80 3f
       1.0 1.0 1.0 1.0
0000b0 00 00 80 3f 00 00 80 3f 00 00 80 3f 00 00 80 3f
       1.0 1.0 1.0 1.0
0000c0 00 00 80 3f 00 00 80 3f 00 00 80 3f 00 00 80 3f
       1.0 1.0 1.0 1.0
0000d0 00 00 80 3f 00 00 80 3f 00 00 80 3f 00 00 80 3f
       1.0 1.0 1.0 1.0
0000e0 00 00 80 3f 00 00 80 3f 00 00 80 3f 00 00 80 3f
       1.0 1.0 1.0 1.0
0000f0 00 00 80 3f 00 00 80 3f 00 00 80 3f 00 00 80 3f
       1.0 1.0 1.0 1.0

weight f4 [32, 16]
000000 96 80 48 be 9a 31 69 3e dc 8f c3 3d 40 86 2a be
       -0.19580302 0.22772828 0.095489234 -0.16652775
000010 b2 be 60 be 12 3d 09 3e 08 5e 3c be 60 96 64 3e
       -0.21947744 0.13402203 -0.18395245 0.22322989
000020 18 b8 2c bd a8 0a 79 3e e0 38 e1 bd ba d9 1b be
       -0.042167753 0.24320471 -0.10997176 -0.15219775
000030 70 d1 f1 3d ee d3 58 be 00 5b 23 3e 00 8f e1 bd
       0.11807525 -0.21174595 0.15952682 -0.11013603
000040 b8 f2 2d be 90 cc 1e be d4 2c 70 be f0 c9 fe 3d
       -0.16987121 -0.15507722 -0.234546 0.1244086
000050 1c ca 95 bd 68 5b 5b bd 7a f9 2e be 12 18 66 be
       -0.0731394 -0.05355397 -0.17087355 -0.2247012
000060 40 ae fb bb ec 53 fc bd 2e c4 73 be e8 27 4d 3e
       -0.0076806843 -0.12320694 -0.23805305 0.20034754
000070 00 81 19 3e 9c f5 3e 3e 4c 28 ff 3d 80 a9 33 3c
       0.14990616 0.1864838 0.12458858 0.010965705
000080 06 5a 5d be 62 56 39 3e 20 74 96 bc b2 53 48 be
       -0.21616372 0.18099359 -0.01836592 -0.19563177
000090 1c 84 57 3e 00 72 89 3c 34 b9 44 be 58 55 f8 3d
       0.2104649 0.016777992 -0.19211274 0.12125653
0000a0 14 2b 17 3e d0 3f 6d 3e 48 65 56 be 2c e7 95 bd
       0.14762527 0.23168874 -0.20937073 -0.07319483
0000b0 5a da 7d 3e 7c 91 7e be 70 03 a4 bd fe 8e 59 be
       0.24790326 -0.24860185 -0.08008468 -0.21245953
0000c0 88 4c c5 bd 10 b3 4f 3d 68 dd ac bd 3e b3 07 be
       -0.09633738 0.050707877 -0.084406674 -0.13251969
0000d0 80 f7 9d bc 14 96 b7 bd 10 ad c6 bc d0 27 5b be
       -0.019283056 -0.08964172 -0.024252445 -0.21401906
0000e0 9e dd 07 3e 9c 5e 26 be 40 19 e0 bb 40 72 50 be
       0.13268134 -0.16247028 -0.0068389475 -0.20356083
0000f0 e4 1a 64 3e 90 7d 9d 3d 98 23 3e bd 8e 00 76 3e
       0.22275883 0.07689965 -0.046420664 0.24023649
000100 dc 57 f3 3d 10 ac 5f 3d 0c 1b 6a be fe 07 1f 3e
       0.11881992 0.05460745 -0.2286188 0.15530393
000110 54 7a 2e 3e a4 3b a7 3d 04 58 94 3d 8a d6 2f be
       0.17038852 0.081656724 0.0724335 -0.17171684
000120 30 e4 4a 3e c4 5d e6 3d a4 b4 cf bd 90 27 e3 3c
       0.19813609 0.11248353 -0.10141876 0.027728826
000130 d4 57 cc 3d ee d6 61 be dc 0f 59 3e 54 03 3d 3e
       0.099776894 -0.22054645 0.21197456 0.18458301
000140 64 55 47 be 68 0f 9e 3d e8 3b 0f 3e d0 e3 a2 3c
       -0.19466168 0.07717782 0.13987696 0.01988402
000150 5c 19 90 bd 0a 07 08 be 84 ec 2f be ca 70 19 be
       -0.07036087 -0.13283935 -0.17180067 -0.14984432
000160 2a b1 05 be 60 51 84 3c b4 bc cf 3d 6c 29 b7 3d
       -0.13055864 0.016152084 0.10143414 0.089434475
000170 d4 ad 82 3d 8e c9 53 be 6e 5f 2e be 8c f4 c7 bd
       0.06380811 -0.20682356 -0.17028591 -0.097634405
000180 64 6b ce 3d 7c 82 23 be f6 ef 5b 3e 10 8e 90 bd
       0.10079077 -0.15967745 0.21478257 -0.07058346
000190 00 2f af ba b2 18 0f be e0 2a 28 bc 64 85 a5 bd
       -0.0013365448 -0.13974264 -0.010264128 -0.08082083
0001a0 86 a0 6c be 30 7b ec bc 84 ba 13 3e ca 17 00 be
       -0.2310811 -0.028867334 0.14426619 -0.12509075
0001b0 86 d7 1d be 12 19 75 3e aa b0 3e 3e d4 3d ef bd
       -0.15414247 0.23935345 0.1862208 -0.11681715
0001c0 4a b4 0b 3e 10 5c 90 3d ac 9e ae 3d 38 84 82 3d
       0.13642994 0.070488095 0.08526358 0.06372875
0001d0 60 c4 2b 3d e8 de 25 3d b0 8d 99 3c 30 74 ed 3d
       0.041935325 0.040495783 0.01874432 0.11594427
0001e0 82 4c 2f be 36 87 0a be 6c 14 dc bd 56 85 4f be
       -0.17119029 -0.13528141 -0.10746083 -0.20265707
0001f0 90 72 5f 3d 38 b6 f8 bd 40 1a b0 3d 98 37 62 bd
       0.054552615 -0.121441305 0.08598757 -0.0552288
000200 48 cf 5a 3d 80 19 fd bb 60 0f 6c bd ec 25 0a be
       0.053420335 -0.007723987 -0.05763185 -0.13491029
000210 e0 da 1e bd 68 be 40 bd 3a cd 4f be 80 ef 74 3b
       -0.038782954 -0.047056586 -0.20293131 0.0037374198
000220 2c 02 76 be 00 1f b0 bb 48 4c 17 be f8 cd 77 3e
       -0.24024266 -0.0053747892 -0.14775193 0.24199665
000230 1c e2 6b be 40 f8 0f bd 56 21 3c be a0 46 8f bc
       -0.23035473 -0.03514886 -0.18372092 -0.017489731
000240 30 ed 0d bd 74 9e 51 be 40 71 46 be ec ec 6c be
       -0.034650028 -0.20470601 -0.19379139 -0.23137254
000250 e6 fa 7a 3e 10 52 a8 bc 60 af a1 3d 5a 5e 25 be
       0.24509773 -0.020546943 0.07894778 -0.16149274
000260 34 bc 80 bd 22 f4 73 3e 60 b1 0a be c0 84 d6 bc
       -0.06285897 0.23823598 -0.13544226 -0.026186347
000270 f0 a7 d6 3d 5e 77 48 3e 58 a5 9a bd 50 d9 30 3e
       0.1048125 0.19576785 -0.07551068 0.17270398
000280 24 f7 6f 3e 7a f8 0d 3e 9c 66 dc 3d 20 28 bb bd
       0.2343412 0.13864318 0.10761759 -0.091385126
000290 ae cb 03 3e 7c fd 1a 3e ce 9d 52 3e 1c 83 60 3e
       0.12870666 0.15135759 0.2056801 0.21925014
0002a0 4c 35 11 be f4 35 5e 3e e0 de fd bc 80 b3 17 bd
       -0.14180487 0.21700269 -0.030990064 -0.03703642
0002b0 40 79 90 bd 5c f2 8c bd 28 84 2b be 46 fd 6b 3e
       -0.070543766 -0.06882164 -0.16749632 0.23045835
0002c0 42 fb 32 be 8c 54 5f 3e 3c 02 5a 3e 08 f5 9f 3d
       -0.1747866 0.21809596 0.21289915 0.07810408
0002d0 f0 0a fa bd 20 2c 69 be 18 f3 7b 3d 06 ff 0c 3e
       -0.122091174 -0.22770739 0.06151113 0.13769159
0002e0 20 66 d3 bd 2c 25 52 3e e0 bb 75 3c ea 68 13 be
       -0.10322213 0.20521992 0.014998406 -0.1439549
0002f0 60 8e 70 bc da 95 54 3e 18 d9 11 be 36 18 6d be
       -0.014682382 0.20760289 -0.14242971 -0.23153767
000300 64 7c d1 3d d8 0d 39 3d 42 50 03 be 48 c7 06 3d
       0.10228804 0.045179218 -0.12823585 0.032904893
000310 10 3c 0e be d0 07 88 bc 8a 3d 38 3e 00 08 5c 3a
       -0.138901 -0.016605288 0.17992225 0.0008393526
000320 9c b3 27 3e d6 c0 37 be 1a a8 48 be a6 67 13 be
       0.1637711 -0.17944655 -0.19595376 -0.14395007
000330 60 81 4a 3e 60 fe b1 bc 44 4f cc 3d ee 10 08 3e
       0.19775915 -0.02172774 0.09976056 0.13287708
000340 de ad 23 3e 2c ce 22 be c0 a0 58 3d 80 9f 33 3c
       0.15984294 -0.15898961 0.05288768 0.010963321
000350 96 be 06 3e e8 31 54 3d a8 5a 4e 3e f0 c5 2b 3e
       0.1315864 0.051805407 0.2015177 0.16774726
000360 48 d4 56 be 68 22 0d bd 80 ab 2c bc 00 a2 4c 3d
       -0.20979416 -0.03445664 -0.010538936 0.049959183
000370 00 06 23 bb a8 3e 7b bd 66 f2 6f 3e f8 a8 36 3d
       -0.0024875402 -0.06133905 0.23432311 0.044594735
000380 80 ed ab 3c 16 52 3f 3e 70 46 3e 3d 80 72 df bd
       0.020987272 0.18683657 0.046453893 -0.10910511
000390 80 ed 5d bb 72 b1 5a be a0 ce 06 bc 18 19 fe bd
       -0.0033863485 -0.21356753 -0.008227974 -0.1240713
0003a0 9a 88 69 be c8 2d fc 3d a4 13 1c 3e 40 1f 95 bc
       -0.22806016 0.123134196 0.15241867 -0.018203378
0003b0 4c f2 be 3d c0 67 b0 bd d8 88 ae bd 00 50 7e bc
       0.09323558 -0.08613539 -0.085221946 -0.015522003
0003c0 e6 8a 12 3e fe 1b 53 3e 52 03 50 be 34 ac 24 be
       0.14310798 0.20616147 -0.20313767 -0.16081315
0003d0 50 dc 9e 3d 88 c8 79 3d 08 ba d7 3d 20 7f 7f bc
       0.07756865 0.060982257 0.105335295 -0.015594274
0003e0 d0 80 6d 3d 72 bf 2d 3e b0 c3 e6 bc d4 b7 25 3e
       0.057984173 0.16967562 -0.028169483 0.16183406
0003f0 f8 c5 70 3e 94 2a 6f be 94 76 1d 3e 30 61 e6 3c
       0.23513019 -0.23356086 0.15377265 0.028122514

bias f4 [32]
000000 dc 4b 62 3e 64 38 e9 bd f4 4a 29 3e 08 8a 5d be
       0.2209925 -0.11387709 0.16532499 -0.21634686
000010 3a 91 70 3e 88 17 3c be 3a c5 0d 3e c4 c2 e4 3d
       0.234929 -0.18368351 0.13844767 0.11169961
000020 e0 66 07 3c 30 39 14 be 2e 8a 0e 3e 5e a5 77 be
       0.008264273 -0.1447494 0.13919899 -0.24184176
000030 0c a5 e2 bd d0 bf 96 bd b8 03 8c 3d 90 c1 92 3d
       -0.110666364 -0.07360804 0.06836647 0.07165825
000040 b4 68 02 be 0c ba 00 3e 00 fc af bb 4c 26 45 be
       -0.12735254 0.12570971 -0.005370617 -0.1925289
000050 24 db 58 3e 46 2b 02 be 88 a8 26 be 40 da bb 3c
       0.21177346 -0.1271182 -0.16275227 0.022931218
000060 30 0c 79 3e 28 63 44 3e 22 ca 70 be 78 28 35 3d
       0.24321055 0.1917845 -0.23514608 0.044228047
000070 60 31 00 3e 94 72 8c bd 90 5a 7b 3e e8 dd ed bd
       0.12518835 -0.068577915 0.24546266 -0.11614591

weight f4 [32]
000000 00 00 80 3f 00 00 80 3f 00 00 80 3f 00 00 80 3f
       1.0 1.0 1.0 1.0
000010 00 00 80 3f 00 00 80 3f 00 00 80 3f 00 00 80 3f
       1.0 1.0 1.0 1.0
000020 00 00 80 3f 00 00 80 3f 00 00 80 3f 00 00 80 3f
       1.0 1.0 1.0 1.0
000030 00 00 80 3f 00 00 80 3f 00 00 80 3f 00 00 80 3f
       1.0 1.0 1.0 1.0
000040 00 00 80 3f 00 00 80 3f 00 00 80 3f 00 00 80 3f
       1.0 1.0 1.0 1.0
000050 00 00 80 3f 00 00 80 3f 00 00 80 3f 00 00 80 3f
       1.0 1.0 1.0 1.0
000060 00 00 80 3f 00 00 80 3f 00 00 80 3f 00 00 80 3f
       1.0 1.0 1.0 1.0
000070 00 00 80 3f 00 00 80 3f 00 00 80 3f 00 00 80 3f
       1.0 1.0 1.0 1.0

bias f4 [32]
000000 00 00 00 00 00 00 00 00 00 00 00 00 00 00 00 00
       0.0 0.0 0.0 0.0
000010 00 00 00 00 00 00 00 00 00 00 00 00 00 00 00 00
       0.0 0.0 0.0 0.0
000020 00 00 00 00 00 00 00 00 00 00 00 00 00 00 00 00
       0.0 0.0 0.0 0.0
000030 00 00 00 00 00 00 00 00 00 00 00 00 00 00 00 00
       0.0 0.0 0.0 0.0
000040 00 00 00 00 00 00 00 00 00 00 00 00 00 00 00 00
       0.0 0.0 0.0 0.0
000050 00 00 00 00 00 00 00 00 00 00 00 00 00 00 00 00
       0.0 0.0 0.0 0.0
000060 00 00 00 00 00 00 00 00 00 00 00 00 00 00 00 00
       0.0 0.0 0.0 0.0
000070 00 00 00 00 00 00 00 00 00 00 00 00 00 00 00 00
       0.0 0.0 0.0 0.0

running_mean f4 [32]
000000 00 00 00 00 00 00 00 00 00 00 00 00 00 00 00 00
       0.0 0.0 0.0 0.0
000010 00 00 00 00 00 00 00 00 00 00 00 00 00 00 00 00
       0.0 0.0 0.0 0.0
000020 00 00 00 00 00 00 00 00 00 00 00 00 00 00 00 00
       0.0 0.0 0.0 0.0
000030 00 00 00 00 00 00 00 00 00 00 00 00 00 00 00 00
       0.0 0.0 0.0 0.0
000040 00 00 00 00 00 00 00 00 00 00 00 00 00 00 00 00
       0.0 0.0 0.0 0.0
000050 00 00 00 00 00 00 00 00 00 00 00 00 00 00 00 00
       0.0 0.0 0.0 0.0
000060 00 00 00 00 00 00 00 00 00 00 00 00 00 00 00 00
       0.0 0.0 0.0 0.0
000070 00 00 00 00 00 00 00 00 00 00 00 00 00 00 00 00
       0.0 0.0 0.0 0.0

running_var f4 [32]
000000 00 00 80 3f 00 00 80 3f 00 00 80 3f 00 00 80 3f
       1.0 1.0 1.0 1.0
000010 00 00 80 3f 00 00 80 3f 00 00 80 3f 00 00 80 3f
       1.0 1.0 1.0 1.0
000020 00 00 80 3f 00 00 80 3f 00 00 80 3f 00 00 80 3f
       1.0 1.0 1.0 1.0
000030 00 00 80 3f 00 00 80 3f 00 00 80 3f 00 00 80 3f
       1.0 1.0 1.0 1.0
000040 00 00 80 3f 00 00 80 3f 00 00 80 3f 00 00 80 3f
       1.0 1.0 1.0 1.0
000050 00 00 80 3f 00 00 80 3f 00 00 80 3f 00 00 80 3f
       1.0 1.0 1.0 1.0
000060 00 00 80 3f 00 00 80 3f 00 00 80 3f 00 00 80 3f
       1.0 1.0 1.0 1.0
000070 00 00 80 3f 00 00 80 3f 00 00 80 3f 00 00 80 3f
       1.0 1.0 1.0 1.0
