checkpoint/pdns_pretrained_gravel_embed.pt (torch, 47558 bytes, 26 tensors)

0 f4 [16, 64]
-0.124423034 -0.0694291 -0.001133995 -0.07342185 -0.09033612 -0.11103718 -0.06007824 -0.07598069
-0.10118183 -0.16171937 -0.07490831 0.007890028 0.00596999 0.0045253094 -0.092265464 -0.029371168
0.019355543 -0.058538254 0.13516578 0.05701689 -0.110193424 -0.117641866 -0.12658773 -0.07969543
0.05362463 0.07440736 -0.051873244 -0.1648453 0.062769614 0.038896915 -0.12932631 0.09395689
-0.057308756 0.048943006 -0.0825021 0.0021250318 0.12284818 0.01340855 0.1068883 0.072792724
-0.05159473 -0.035942867 -0.08249789 0.020991005 -0.15405571 -0.04878102 -0.18937092 0.049203046
0.013949974 -0.01172238 -0.09078259 -0.08824357 -0.13722654 -0.052916907 -0.00971248 -0.005758076
0.031602003 0.021218222 0.059315324 0.088094585 -0.07454368 0.14808461 -0.011632769 0.12608127
-0.04480583 0.003707387 -0.08208261 -0.102255754 -0.12964484 -0.10289114 -0.08381999 -0.022950068
0.037090037 0.040206753 0.0016692812 -0.017048858 0.031046696 0.00087447144 -0.033046618 -0.008850679
-0.005920843 -0.01539028 0.07086853 -0.06287052 0.0087128775 -0.018733507 -0.14046991 -0.04512105
0.0064683883 0.08345958 -0.13025111 0.015060801 0.015619048 0.03660241 0.06534262 -0.08957944
0.016948853 0.0038617044 0.11205926 -0.05170336 0.09955319 -0.10884404 0.10320178 -0.0013676882
-0.13105617 0.09722674 -0.058546335 -0.0070036696 -0.007905978 -0.02174878 -0.12137654 0.039875675
0.081895344 -0.124135606 0.053539056 -0.15129077 0.09115387 -0.044882726 0.0619715 -0.061095323
-0.03954259 0.006942933 -0.11414968 0.10436948 -0.027140828 0.06503649 -0.12351915 0.044261564
-0.07476297 0.08718688 0.03711676 0.050233953 0.05035082 0.10776833 0.024403516 -0.04249978
0.13263232 -0.060187742 0.03509315 0.060022183 0.05799692 -0.07622364 -0.015432758 -0.013554204
0.118608244 -0.020101417 -0.15665884 -0.020120822 0.009431458 0.051238235 0.17045167 0.06711494
0.11847612 0.09763082 0.04801339 0.022480007 0.056243744 0.1045662 -0.12420337 -0.065038286
0.056348138 -0.030091204 0.038334195 -0.00014830183 -0.03427709 -0.09268301 0.07863017 0.019441405
0.043840747 -0.039757 0.037147276 -0.058579575 -0.026623545 0.11136689 0.041101452 -0.15518717
0.03647688 -0.05153734 0.1293317 -0.08481843 -0.18160155 -0.021682499 -0.16214687 0.043751813
-0.07588498 0.011671375 0.09619256 0.034250952 -0.11240638 0.046333995 -0.061785445 0.045611434
-0.02399919 -0.17667885 -0.090559036 -0.020106023 0.012096455 0.112961926 0.13274325 -0.026615042
-0.013936631 0.00045287242 0.12516306 0.0014675002 0.08302578 -0.0022101537 -0.011260105 -0.025700422
-0.09523758 0.0053514815 -0.08874442 -0.05401035 0.08914247 -0.0036242097 0.052452687 -0.008875863
0.020546045 -0.0041994285 -0.0058708345 -0.03628379 -0.04911758 -0.0155753745 -0.015818115 -0.018995667
-0.0075992006 -0.059285384 -0.05781142 -0.013589202 0.029003032 0.04931798 -0.13711755 0.017202957
0.06179283 0.011246642 0.046286263 0.10285588 0.017745072 -0.069411054 0.19587246 0.07265349
-0.14659704 -0.06952549 0.1002886 0.09445093 0.063478105 0.07070838 -0.049333986 -0.10842491
-0.06787885 0.08889965 0.01448759 0.052555665 0.01634031 -0.08258133 0.047133703 0.021610288
00000000: 81d1 febd d830 8ebd 8fa2 94ba 325e 96bd
00000010: 2502 b9bd 7667 e3bd 9a14 76bd c49b 9bbd
00000020: 6b38 cfbd c399 25be 8769 99bd 2d45 013c
00000030: e89f c33b 0c49 943b adf5 bcbd ce9b f0bc
00000040: 848f 9e3c cfc5 6fbd e668 0a3e 8b8a 693d
00000050: 17ad e1bd 38ee f0bd 37a0 01be 5c37 a3bd
00000060: 80a5 5b3d e362 983d 0a79 54bd 35cd 28be
00000070: 5b8d 803d 5f52 1f3d 1e6e 04be 786c c03d
00000080: 96bc 6abd 7678 483d dcf6 a8bd 1e44 0b3b
00000090: d497 fb3d 89af 5b3c 41e8 da3d 5a14 953d
000000a0: ff54 53bd d438 13bd a7f4 a8bd 54f5 ab3c
000000b0: c8c0 1dbe 9bce 47bd 73ea 41be 2289 493d
000000c0: 6f8e 643c 3a0f 40bc 39ec b9bd 0bb9 b4bd
000000d0: 1d85 0cbe 66bf 58bd 1821 1fbc 3eae bcbb
000000e0: 1a71 013d d6d1 ad3c a0f4 723d ef6a b43d
000000f0: 5baa 98bd 7ea3 173e 5f97 3ebc 731b 013e
00000100: 5186 37bd a2f7 723b ed1a a8bd 776b d1bd
00000110: 9ec1 04be 97b8 d2bd d1a9 abbd c801 bcbc
00000120: b9eb 173d d6af 243d c8cb da3a 0caa 8bbc
00000130: a455 fe3c c93c 653a e45b 07bd 7002 11bc
00000140: a203 c2bb 8327 7cbc 8523 913d 42c2 80bd
00000150: 75c0 0e3c 0377 99bc 58d7 0fbe dad0 38bd
00000160: c6f4 d33b dbec aa3d 8c60 05be 94c1 763c
00000170: 09e7 7f3c 69ec 153d 5ad2 853d 6d75 b7bd
00000180: 52d8 8a3c a614 7d3b 537f e53d e7c6 53bd
00000190: 8be2 cb3d a0e9 debd 745b d33d 0044 b3ba
000001a0: 9733 06be d01e c73d 48ce 6fbd 0a7f e5bb
000001b0: 1388 01bc 7f2a b2bc 4394 f8bd ad54 233d
000001c0: bfb8 a73d cf3a febd c54b 5b3d f8eb 1abe
000001d0: e1ae ba3d f3d6 37bd d4d5 7d3d 173f 7abd
000001e0: 69f7 21bd 8b81 e33b 4fc7 e9bd aabf d53d
000001f0: 7156 debc da31 853d 9cf7 fcbd 9d4b 353d
00000200: 541d 99bd 098f b23d be07 183d 1ec2 4d3d
00000210: a93c 4e3d a4b5 dc3d e2e9 c73c 4014 2ebd
00000220: c4d0 073e 6c87 76bd d6bd 0f3d d2d9 753d
00000230: 2e8e 6d3d 241b 9cbd aed9 7cbc 7412 5ebc
00000240: e1e8 f23d baab a4bc 2d6b 20be 6cd4 a4bc
00000250: 6786 1a3c 2fdf 513d e28a 2e3e 8f73 893d
00000260: 9ca3 f23d abf2 c73d b0a9 443d fe27 b83c
00000270: d75f 663d ce26 d63d 565e febd cb32 85bd
00000280: 4ecd 663d d481 f6bc 5104 1d3d 7881 1bb9
00000290: 2266 0cbd 97d0 bdbd db08 a13d 9543 9f3c
000002a0: 5b92 333d 3cd8 22bd be27 183d 23f1 6fbd
000002b0: 9f19 dabc 5314 e43d ff59 283d 63e9 1ebe
000002c0: c868 153d d118 53bd 876f 043e 49b5 adbd
000002d0: c2f5 39be 7f9f b1bc d409 26be 1a35 333d
000002e0: 9669 9bbd 4b39 3f3c 9b00 c53d ba4a 0c3d
000002f0: 5135 e6bd b7c8 3d3d bc12 7dbd 0ed3 3a3d
00000300: f399 c4bc 4deb 34be 0477 b9bd 63b5 a4bc
00000310: 3630 463c 9558 e73d d9ed 073e ca07 dabc
00000320: 7856 64bc 826f ed39 bf2a 003e 2359 c03a
00000330: 6c09 aa3d 3ad8 10bb 4e7c 38bc b189 d2bc
00000340: ec0b c3bd 7b5b af3b a2bf b5bd f539 5dbd
00000350: 5490 b63d 2684 6dbb a1d8 563d 116c 11bc
00000360: 2e50 a83c 5c9b 89bb 2160 c0bb 509e 14bd
00000370: 842f 49bd db2f 7fbc fe94 81bc cd9c 9bbc
00000380: b702 f9bb 3bd5 72bd abcb 6cbd 3fa5 5ebc
00000390: c497 ed3c a601 4a3d 8b68 0cbe 37ed 8c3c
000003a0: 7a1a 7d3d d643 383c aa96 3d3d 1ba6 d23d
000003b0: 1d5e 913c 6227 8ebd ca92 483e 5acb 943d
000003c0: 891d 16be 6163 8ebd 1c64 cd3d 7d6f c13d
000003d0: cf00 823d 8ecf 903d 6f12 4abd e10d debd
000003e0: 1104 8bbd 0511 b63d 5b5d 6d3c 9c44 573d
000003f0: 1ddc 853c 6620 a9bd 450f 413d 0f08 b13c

1 f4 [16, 64]
-0.08925475 0.09308577 0.06876722 -0.03462033 -0.20318629 0.21079512 0.08183856 0.0063149943
-0.106381446 0.0082638925 0.13607654 0.0063800886 -0.06792156 0.16574126 0.16524768 0.22059426
0.00457771 0.014262101 -0.036199853 0.10745154 0.08952294 0.067377925 -0.018037846 -0.06560257
0.13064563 -0.12801445 0.17240778 0.053817056 -0.00044306027 0.18434027 -0.07485987 -0.025761764
0.08504261 -0.043950137 -0.06468994 0.13863245 -0.039856985 -0.053029418 -0.1960135 0.08639941
-0.18826747 -0.09845088 -0.1557426 -0.014417157 0.066680044 0.137755 -0.08237541 -0.07870489
-0.11787187 -0.0108395135 -0.0065621794 0.08752058 0.04052949 -0.029994566 0.0004224459 0.094414644
-0.05810521 0.10280919 -0.10432373 -0.055933166 0.101232484 0.049114566 -0.053747803 0.08989658
-0.088413544 -0.04998128 -0.058568537 0.08749047 0.018990036 -0.20280313 -0.16504095 -0.026528582
0.102871254 -0.16062266 0.007890776 0.061343506 0.006104193 0.06679471 0.023664221 0.038187187
0.031422716 -0.1417301 0.15679343 0.1796933 -0.0049857325 0.14393446 0.087815166 0.10547546
0.051219743 -0.080572344 -0.11249421 -0.12017359 -0.00597635 0.015981274 0.024497014 0.010216357
0.116473176 -0.05338976 0.034721237 -0.071346775 -0.06990271 0.12295369 -0.023602603 -0.048739858
-0.07499091 0.056216102 -0.11047806 0.032990552 0.05353474 -0.06280945 0.08998108 0.04107176
-0.02812555 0.011666055 0.018735344 0.04734194 0.05502171 0.18842629 -0.10786776 0.061852034
0.16000283 -0.07648963 -0.014687398 0.09399447 -0.021604914 -0.0018243333 0.23831736 -0.03893936
-0.11375206 0.14150612 0.049927674 0.055476543 0.13976479 -0.06235217 -0.12661767 -0.18510416
0.15177192 -0.0718482 0.102005884 -0.086537614 0.00870364 0.038070384 0.034138195 -0.06455236
-0.06647839 -0.10325598 0.1688459 0.044855777 0.12864947 0.1677252 0.11493517 0.21353363
0.028719334 0.18769138 0.06592208 -0.10883528 0.031579193 -0.060487773 -0.080453224 0.060745474
0.059056602 0.031357154 0.1298851 0.032713808 0.059315894 -0.20046872 0.07136129 -0.08519605
-0.01853717 -0.09086579 -0.20519064 -0.0108016245 0.03894364 -0.14060983 0.12429168 0.13788462
0.017271092 -0.14957464 0.0879213 0.030921152 -0.20660038 0.011106344 -0.22673188 -0.046598155
0.18918838 -0.10883336 0.03690078 -0.039542027 0.018261453 -0.22725834 0.13856897 -0.14611092
-0.028985612 -0.11403664 0.001191786 0.12519741 0.19011071 0.10464536 0.06726348 -0.073129356
0.14140958 -0.07340849 -0.028474782 -0.087475754 -0.020153485 -0.0017372491 0.021952005 0.05332207
0.11979043 0.105721496 -0.08646621 -0.06510879 -0.041567095 -0.0579104 -0.018642642 0.013685157
0.06432768 -0.10729002 -0.10071127 0.13826583 -0.024473824 -0.055578638 0.13226336 0.08482916
0.14029744 -0.13723552 -0.098641805 -0.079770565 -0.17504011 -0.060740825 -0.010462133 -0.052769233
0.039804783 -0.11524989 0.13125141 0.058518 -0.073728636 0.14676291 0.01089946 -0.00465716
0.09426833 -0.04685942 -0.038639806 -0.07241722 -0.037193514 0.10680276 0.006031483 0.0035622038
-0.08890843 -0.06036182 0.076045655 -0.24856894 -0.08371208 0.06914063 0.17288253 -0.009796724
00000000: 32cb b6bd c1a3 be3d d4d5 8c3d 0cce 0dbd
00000010: 1110 50be adda 573e fa9a a73d 03ee ce3b
00000020: 84de d9bd 4765 073c a657 0b3e 1010 d13b
00000030: 751a 8bbd 14b8 293e b036 293e 76e3 613e
00000040: 9d00 963b 96ab 693c 4c46 14bd 8e0f dc3d
00000050: ce57 b73d 70fd 893d 1bc4 93bc a45a 86bd
00000060: f8c7 053e 3816 03be aa8b 303e 466f 5c3d
00000070: 8b4a e8b9 b2c3 3c3e 2250 99bd 560a d3bc
00000080: d22a ae3d 0f05 34bd 297c 84bd aaf5 0d3e
00000090: 1441 23bd 6035 59bd c3b7 48be 2df2 b03d
000000a0: 30c9 40be 9da0 c9bd fd7a 1fbe f035 6cbc
000000b0: 8c8f 883d a60f 0d3e 70b4 a8bd 0830 a1bd
000000c0: cf66 f1bd 3798 31bc 8d07 d7bb fd3d b33d
000000d0: 4002 263d 2ab7 f5bc bb7b dd39 775c c13d
000000e0: bbff 6dbd a08d d23d aea7 d5bd 2d1a 65bd
000000f0: fa52 cf3d 5b2c 493d a826 5cbd b31b b83d
00000100: 2912 b5bd 2cb9 4cbd 90e5 6fbd 342e b33d
00000110: fe90 9b3c a0ab 4fbe 7f00 29be 7852 d9bc
00000120: 2aae d23d 447a 24be 5048 013c 5443 7b3d
00000130: af05 c83b aacb 883d 78db c13c 2b6a 1c3d
00000140: 1bb5 003d b221 11be 758e 203e 8501 383e
00000150: 5b5f a3bb 8e63 133e 70d8 b33d 8503 d83d
00000160: cbcb 513d 1d03 a5bd 5d63 e6bd 921d f6bd
00000170: 42d5 c3bb 29eb 823c f6ad c83c 8262 273c
00000180: 7d89 ee3d 39af 5abd db37 0e3d 421e 92bd
00000190: 2729 8fbd 25cf fb3d 3f5a c1bc 72a3 47bd
000001a0: d694 99bd db42 663d 5242 e2bd 1a21 073d
000001b0: 3e47 5b3d 3ea2 80bd 0048 b83d dd3a 283d
000001c0: 8e67 e6bc fb22 3f3c dd7a 993c 9fe9 413d
000001d0: 725e 613d d2f2 403e c6e9 dcbd 8f58 7d3d
000001e0: c8d7 233e 98a6 9cbd 6aa3 70bc 2c80 c03d
000001f0: cafc b0bc 781e efba 7709 743e e17e 1fbd
00000200: d7f6 e8bd fbe6 103e f680 4c3d 5f3b 633d
00000210: 801e 0f3e fd64 7fbd 10a8 01be f28b 3dbe
00000220: 196a 1b3e 2625 93bd 76e8 d03d a23a b1bd
00000230: b699 0e3c b1ef 1b3d 7ed4 0b3d 0734 84bd
00000240: d225 88bd df77 d3bd f1e5 2c3e b1ba 373d
00000250: b0bc 033e 28c0 2b3e 2163 eb3d 8fa8 5a3e
00000260: cf44 eb3c 2b32 403e 2802 873d 08e5 debd
00000270: 2f59 013d 07c2 77bd a9c4 a4bd 3fd0 783d
00000280: 56e5 713d 5c70 003d 9a00 053e eafe 053d
00000290: 39f5 723d ac47 4dbe de25 923d 447b aebd
000002a0: 43db 97bc d817 babd 7f1d 52be 4cf9 30bc
000002b0: 5e83 1f3d 06fc 0fbe a38c fe3d a031 0d3e
000002c0: 1b7c 8d3c 182a 19be 1510 b43d 5b4e fd3c
000002d0: 0d8f 53be 62f7 353c 672c 68be b5dd 3ebd
000002e0: 99ba 413e 06e4 debd 4625 173d d2f6 21bd
000002f0: 0b99 953c 69b6 68be 06e5 0d3e 1a9e 15be
00000300: 3c73 edbc 0b8c e9bd b435 9c3a c033 003e
00000310: 62ac 423e 4e50 d63d 6fc1 893d d8c4 95bd
00000320: accd 103e 3157 96bd f243 e9bc 7d26 b3bd
00000330: ec18 a5bc 68b4 e3ba b1d4 b33c 3e68 5a3d
00000340: af54 f53d 8384 d83d 3215 b1bd c257 85bd
00000350: 4242 2abd 7533 6dbd 74b8 98bc b537 603c
00000360: 3bbe 833d dfba dbbd b641 cebd 8f95 0d3e
00000370: 547d c8bc 6da6 63bd 0c70 073e e9ba ad3d
00000380: 22aa 0f3e 7887 0cbe b704 cabd c05e a3bd
00000390: b73d 33be 5fcb 78bd 5e69 2bbc 8d24 58bd
000003a0: 570a 233d 2208 ecbd c566 063e 92b0 6f3d
000003b0: 0aff 96bd 0449 163e a693 323c 179b 98bb
000003c0: c10f c13d aaef 3fbd c644 1ebd 7b4f 94bd
000003d0: 3a58 18bd 68bb da3d bfa3 c53b dd73 693b
000003e0: 9f15 b6bd f53d 77bd d3bd 9b3d db88 7ebe
000003f0: 3d71 abbd 9a99 8d3d 1e08 313e 7082 20bc

weight f4 [32, 16]
0.21394852 -0.17043272 0.08487368 0.053235352 0.17769012 -0.11617693 -0.09434685 0.23978654
-0.040734798 -0.20303333 -0.22871238 -0.08552888 -0.036281347 -0.08327103 0.01460427 -0.09947726
-0.089622736 -0.023212373 -0.16039792 0.13846847 -0.18240675 -0.023278743 0.21623576 0.07652846
0.064438045 0.09597027 0.08187407 -0.14939904 0.22372764 -0.2188069 0.14224038 -0.19294211
0.12426895 -0.012803346 -0.2308344 0.24349418 -0.05363807 -0.24410811 0.23532802 -0.07850081
0.10106081 -0.064998746 -0.17166868 -0.12179196 0.07852805 -0.21076778 -0.08452359 -0.13368472
-0.099699825 -0.19380748 -0.041356713 -0.01616469 -0.111938864 -0.2135421 -0.017306447 -0.06694636
-0.15323707 -0.024117589 0.09298888 -0.18866086 -0.08621773 0.18456128 0.03336504 0.040676445
0.0727303 -0.10390934 0.2463992 0.11124095 0.035189927 -0.005651444 -0.011015922 -0.06025973
0.1346721 0.017355442 0.021759838 0.022301346 -0.052351207 -0.16038403 -0.07105756 0.18045875
-0.1270237 -0.098495215 -0.24916232 -0.20805052 -0.051503032 0.09917644 0.21240082 0.14805591
0.025377572 0.00810349 0.0999642 -0.14404863 -0.13436148 0.038889974 -0.032108545 -0.16553095
0.068843484 -0.012228459 0.045322776 0.037899166 -0.09025532 -0.22872257 0.18464193 0.20655456
0.13408661 0.06602448 -0.18185833 0.14899433 0.1982815 0.20821005 -0.24585256 0.13563651
0.03582281 0.2441696 0.19875881 0.04594782 0.14748847 0.12913388 0.019524932 0.06285736
-0.072877795 0.041737586 -0.12414548 -0.16726014 -0.13315949 0.123993516 0.0934273 -0.11122236
-0.110563576 0.020261973 0.0036652088 0.05813551 -0.21361294 0.1752682 -0.09287664 -0.093815655
-0.16156125 0.18634719 -0.13454854 -0.2203426 0.21214214 -0.11442682 -0.24430639 0.04721722
-0.04459718 -0.1740703 0.08233896 0.0334253 0.19018579 -0.2296023 -0.13293841 -0.12221703
0.06658137 0.07007432 0.24604881 0.075294495 0.12368038 0.10376465 -0.031253815 0.051044106
0.13690433 0.17213029 0.14086103 0.12455493 0.22346619 0.06054929 -0.17924595 0.24135306
0.021233022 -0.23623839 0.0011997521 -0.016576886 -0.025472552 0.17438948 -0.018110454 0.09808591
0.0023709536 0.0013255775 0.06889966 -0.10006586 -0.03909412 0.16820619 -0.18627253 0.123773396
-0.11984646 -0.14201486 0.19445542 -0.24148071 0.10312423 0.22398049 -0.123835206 -0.11245546
-0.011121482 -0.24817002 0.12622067 -0.1934132 -0.19824973 0.17138278 -0.2317613 -0.008989871
-0.21085238 0.15972266 0.0057424605 -0.17253208 -0.0026753843 0.14239174 0.054024428 0.14352438
-0.24242923 -0.081082374 0.08850193 -0.09266296 0.2372719 0.062986314 -0.07114798 0.11080417
-0.13499194 -0.121417075 -0.12611088 -0.2103397 0.23490357 0.039449275 -0.16571036 -0.17872235
0.16941515 -0.22719404 0.20486033 0.026628613 -0.09390426 0.00870204 -0.18079194 0.20122102
0.00014436245 -0.20357695 0.0057625175 -0.21964496 0.07531616 -0.1675637 0.009652287 -0.2227866
-0.041318208 0.20304325 0.22950873 -0.14114451 0.031612873 -0.05338499 -0.19571143 -0.06351295
0.22384152 0.015995175 0.016058385 -0.151191 0.12800917 -0.04491228 0.23367888 -0.23403889
00000000: 5215 5b3e ea85 2ebe 40d2 ad3d 500d 5a3d
00000010: 66f4 353e 2cee edbd ec38 c1bd 9a8a 753e
00000020: 88d9 26bd f8e7 4fbe 9433 6abe c429 afbd
00000030: c09b 14bd 008a aabd c046 6f3c bcba cbbd
00000040: 208c b7bd e027 bebc 5a3f 24be aeca 0d3e
00000050: d6c8 3abe 10b3 bebc e86c 5d3e f4ba 9c3d
00000060: 18f8 833d 108c c43d 98ad a73d 10fc 18be
00000070: dc18 653e ea0e 60be 76a7 113e 9e92 45be
00000080: b880 fe3d 20c5 51bc da5f 6cbe 8a56 793e
00000090: 98b3 5bbd 7af7 79be d4f9 703e 08c5 a0bd
000000a0: f8f8 ce3d 101e 85bd eac9 2fbe 106e f9bd
000000b0: 50d3 a03d 82d3 57be b41a adbd a6e4 08be
000000c0: 6c2f ccbd 7875 46be a865 29bd d06b 84bc
000000d0: 3440 e5bd c8aa 5abe 40c6 8dbc 2c1b 89bd
000000e0: 2eea 1cbe 4092 c5bc f470 be3d 5030 41be
000000f0: ec92 b0bd a2fd 3c3e c8a9 083d 589c 263d
00000100: a0f3 943d 6cce d4bd 1250 7c3e 4cd2 e33d
00000110: 5023 103d c02f b9bb 207c 34bc e8d2 76bd
00000120: 7ce7 093e 002d 8e3c b041 b23c 50b1 b63c
00000130: 386e 56bd b63b 24be a086 91bd 2eca 383e
00000140: 8012 02be dcb7 c9bd 6824 7fbe 320b 55be
00000150: d8f4 52bd 041d cb3d 9a7f 593e f89b 173e
00000160: a0e4 cf3c 80c4 043c 08ba cc3d 7c81 13be
00000170: 0e96 09be 184b 1f3d 4084 03bd f280 29be
00000180: d0fd 8c3d e059 48bc 60a4 393d 283c 1b3d
00000190: c8d7 b8bd 4036 6abe c612 3d3e 0a83 533e
000001a0: 004e 093e d837 873d 1239 3abe f891 183e
000001b0: 4e0a 4b3e 0435 553e c6c0 7bbe 4ce4 0a3e
000001c0: f0ba 123d 9807 7a3e 6e87 4b3e c833 3c3d
000001d0: 3807 173e ac3b 043e c0f2 9f3c 5cbb 803d
000001e0: f440 95bd 08f5 2a3d fc3f febd 3e46 2bbe
000001f0: f65a 08be 50f0 fd3d d056 bf3d 8cc8 e3bd
00000200: 286f e2bd 70fc a53c 0034 703b 801f 6e3d
00000210: 5abd 5abe 8279 333e 1c36 bebd 6c22 c0bd
00000220: 5070 25be ccd1 3e3e 18c7 09be 7ea1 61be
00000230: ca3b 593e 9c58 eabd 742b 7abe d866 413d
00000240: 88ab 36bd 7c3f 32be 54a1 a83d f8e8 083d
00000250: 10c0 423e de1c 6bbe 0221 08be ec4c fabd
00000260: d05b 883d 2083 8f3d 38f4 7b3e 0034 9a3d
00000270: 244c fd3d 9082 d43d 0004 00bd a013 513d
00000280: a630 0c3e ec42 303e e03d 103e a816 ff3d
00000290: 52d4 643e 8802 783d 408c 37be 4225 773e
000002a0: e0f0 ad3c 7ae8 71be 0041 9d3a 40cc 87bc
000002b0: d0ab d0bc 2893 323e 605c 94bc 44e1 c83d
000002c0: 0062 1b3b 00bf ad3a 441b 8d3d 54ef ccbd
000002d0: 2821 20bd 3e3e 2c3e 3abe 3ebe e87c fd3d
000002e0: 1072 f5bd 586c 11be 521f 473e b846 77be
000002f0: cc32 d33d 245b 653e 509d fdbd 0c4f e6bd
00000300: e036 36bc 4820 7ebe fe3f 013e 1c0e 46be
00000310: fa01 4bbe f87e 2f3e d652 6dbe 404a 13bc
00000320: b0e9 57be 568e 233e 402b bc3b 40ac 30be
00000330: 8055 2fbb 24cf 113e b848 5d3d 0ef8 123e
00000340: 5e3f 78be 840e a6bd 8040 b53d 14c6 bdbd
00000350: 68f7 723e f8fe 803d 08b6 91bd 4ced e23d
00000360: 543b 0abe 84a9 f8bd 3623 01be 4a63 57be
00000370: 908a 703e 9095 213d faaf 29be fe02 37be
00000380: 2a7b 2d3e 8ea5 68be e8c6 513e 4024 da3c
00000390: e050 c0bd 0093 0e3c 8621 39be e20c 4e3e
000003a0: 0060 1739 7a76 50be 80d3 bc3b 9cea 60be
000003b0: 5c3f 9a3d d295 2bbe a024 1e3c 2c22 64be
000003c0: 483d 29bd 92ea 4f3e 5604 6b3e 3088 10be
000003d0: 807c 013d 38aa 5abd 9468 48be 1413 82bd
000003e0: b636 653e 5008 833c e08c 833c d0d1 1abe
000003f0: d614 033e f0f5 37bd 8449 6f3e e4a7 6fbe

bias f4 [32]
0.10533282 0.09642917 0.08295524 -0.2465781 0.24885377 -0.21935874 -0.08772963 0.062349558
-0.043949664 -0.13945562 -0.0675748 0.14193198 0.057550818 -0.22051555 -0.16769734 0.1388815
0.09917709 -0.06297061 0.034968138 -0.12516153 -0.14767784 -0.18712452 0.041938633 -0.053457826
-0.21080944 0.02074793 0.20167443 -0.16243789 0.2407802 -0.16113141 0.2191394 -0.15702075
00000000: bcb8 d73d a87c c53d 70e4 a93d f87e 7cbe
00000010: 86d3 7e3e 949f 60be 98ab b3bd 4062 7f3d
00000020: 9004 34bd 74cd 0ebe a864 8abd 9e56 113e
00000030: 68ba 6b3d d4ce 61be dab8 2bbe f436 0e3e
00000040: 5c1d cb3d bcf6 80bd c03a 0f3d 582a 00be
00000050: dc38 17be 929d 3fbe d8c7 2b3d 98f6 5abd
00000060: 6ede 57be 90f7 a93c be83 4e3e 1e56 26be
00000070: 168f 763e a2ff 24be 1466 603e 0cca 20be

weight f4 [32]
1.0 1.0 1.0 1.0 1.0 1.0 1.0 1.0
1.0 1.0 1.0 1.0 1.0 1.0 1.0 1.0
1.0 1.0 1.0 1.0 1.0 1.0 1.0 1.0
1.0 1.0 1.0 1.0 1.0 1.0 1.0 1.0
00000000: 0000 803f 0000 803f 0000 803f 0000 803f
00000010: 0000 803f 0000 803f 0000 803f 0000 803f
00000020: 0000 803f 0000 803f 0000 803f 0000 803f
00000030: 0000 803f 0000 803f 0000 803f 0000 803f
00000040: 0000 803f 0000 803f 0000 803f 0000 803f
00000050: 0000 803f 0000 803f 0000 803f 0000 803f
00000060: 0000 803f 0000 803f 0000 803f 0000 803f
00000070: 0000 803f 0000 803f 0000 803f 0000 803f

bias f4 [32]
0.0 0.0 0.0 0.0 0.0 0.0 0.0 0.0
0.0 0.0 0.0 0.0 0.0 0.0 0.0 0.0
0.0 0.0 0.0 0.0 0.0 0.0 0.0 0.0
0.0 0.0 0.0 0.0 0.0 0.0 0.0 0.0
00000000: 0000 0000 0000 0000 0000 0000 0000 0000
00000010: 0000 0000 0000 0000 0000 0000 0000 0000
00000020: 0000 0000 0000 0000 0000 0000 0000 0000
00000030: 0000 0000 0000 0000 0000 0000 0000 0000
00000040: 0000 0000 0000 0000 0000 0000 0000 0000
00000050: 0000 0000 0000 0000 0000 0000 0000 0000
00000060: 0000 0000 0000 0000 0000 0000 0000 0000
00000070: 0000 0000 0000 0000 0000 0000 0000 0000

running_mean f4 [32]
0.0 0.0 0.0 0.0 0.0 0.0 0.0 0.0
0.0 0.0 0.0 0.0 0.0 0.0 0.0 0.0
0.0 0.0 0.0 0.0 0.0 0.0 0.0 0.0
0.0 0.0 0.0 0.0 0.0 0.0 0.0 0.0
00000000: 0000 0000 0000 0000 0000 0000 0000 0000
00000010: 0000 0000 0000 0000 0000 0000 0000 0000
00000020: 0000 0000 0000 0000 0000 0000 0000 0000
00000030: 0000 0000 0000 0000 0000 0000 0000 0000
00000040: 0000 0000 0000 0000 0000 0000 0000 0000
00000050: 0000 0000 0000 0000 0000 0000 0000 0000
00000060: 0000 0000 0000 0000 0000 0000 0000 0000
00000070: 0000 0000 0000 0000 0000 0000 0000 0000

running_var f4 [32]
1.0 1.0 1.0 1.0 1.0 1.0 1.0 1.0
1.0 1.0 1.0 1.0 1.0 1.0 1.0 1.0
1.0 1.0 1.0 1.0 1.0 1.0 1.0 1.0
1.0 1.0 1.0 1.0 1.0 1.0 1.0 1.0
00000000: 0000 803f 0000 803f 0000 803f 0000 803f
00000010: 0000 803f 0000 803f 0000 803f 0000 803f
00000020: 0000 803f 0000 803f 0000 803f 0000 803f
00000030: 0000 803f 0000 803f 0000 803f 0000 803f
00000040: 0000 803f 0000 803f 0000 803f 0000 803f
00000050: 0000 803f 0000 803f 0000 803f 0000 803f
00000060: 0000 803f 0000 803f 0000 803f 0000 803f
00000070: 0000 803f 0000 803f 0000 803f 0000 803f

weight f4 [64, 32]
-0.11155413 0.08282589 0.017095331 0.0069968402 -0.059197966 0.016950471 -0.1578709 0.111436285
0.0785417 0.08483391 0.10374244 0.07317447 0.05316317 -0.13238533 0.13455012 0.13292035
0.16749156 0.1755573 -0.14651437 -0.102469966 -0.0073279883 -0.08126182 -0.108510494 0.09291761
-0.0034662199 0.122526385 -0.14141837 -0.1556664 -0.17354342 -0.02773722 0.017103696 0.10908224
-0.03258461 -0.12208056 -0.12430414 0.0496378 -0.12182414 -0.124786824 0.120557114 0.12234592
-0.032012258 0.14426637 0.016114658 -0.070553884 -0.03424545 -0.017891422 0.16353618 -0.16609201
-0.17284186 -0.056660324 -0.14552271 -0.13220398 -0.087297946 -0.060484897 -0.061836842 0.03487437
-0.07696214 0.08626217 -0.00033654258 -0.021665776 -0.105490275 -0.09137127 0.10312784 0.010339591
0.07208704 0.1582054 -0.16414924 0.14429726 -0.15722007 -0.088555016 -0.00278146 0.1592238
0.1581471 -0.09702143 -0.10996127 -0.088530906 0.15408775 -0.12881069 -0.12717548 0.14254819
0.03245183 0.034634087 -0.16637692 -0.08718111 0.065772094 0.09038347 0.055624798 -0.04563842
-0.004034528 0.09616008 -0.13536164 0.13796888 0.010201856 0.012457576 -0.120433375 0.07933733
0.16078359 0.14626151 0.04949066 -0.12001614 -0.054933317 -0.1511537 -0.040243454 -0.16741922
-0.10762402 0.052405287 -0.07819077 0.13287437 -0.048108373 0.14381567 -0.02064281 0.060584556
0.016514841 0.1400608 -0.019916998 -0.020647783 0.11266708 -0.13587473 0.028902117 -0.104813665
-0.14219154 -0.11740352 0.14541036 -0.118594594 0.12667237 -0.08379107 0.17066006 0.0014249849
0.045811538 0.120881036 0.17435342 0.15018965 -0.1754587 -0.051786505 -0.041210808 0.15215614
-0.15096396 -0.04440322 -0.014272082 0.060520954 0.08283215 0.12018212 -0.010782238 0.14241253
-0.009785128 0.09823931 -0.0034607197 0.01446385 0.07653463 -0.0493552 0.021474851 -0.15353125
-0.02245468 -0.103279985 -0.046791494 0.14032894 -0.012635435 0.046646107 -0.05102896 0.06323774
-0.08070993 0.15172338 0.028775213 0.09032493 0.013339224 -0.054013737 0.0066291722 0.12900817
0.11377194 -0.094913036 -0.07045044 0.08332402 -0.08764724 0.11743861 -0.0073240055 0.05759605
0.09395917 -0.051047545 0.1590796 -0.072588965 0.06469366 0.1640809 0.11059409 0.074773185
-0.106284864 -0.11378138 -0.07567593 0.043569576 -0.043930944 -0.083708234 -0.13511217 -0.11013846
0.0016093352 -0.007982866 -0.12553056 0.06461329 -0.13093987 -0.098839626 -0.15634541 0.1287981
0.09069222 0.13608086 -0.023463825 -0.17252846 0.037807807 -0.055882104 -0.07777335 -0.041319925
0.11685119 0.17277938 -0.059566204 -0.070546344 -0.01600299 -0.109539196 -0.018490897 -0.057153087
0.14935236 -0.05359132 0.034711197 0.007403726 -0.17614485 -0.1250943 0.096168086 0.17328037
0.14209607 0.1297622 -0.097906746 -0.024768732 0.13993686 -0.11813047 -0.15081641 -0.14838186
0.13227512 0.046104796 -0.12703261 -0.141358 -0.05220766 -0.16933155 0.044476114 0.08464065
0.108114205 0.11418485 -0.09517631 -0.1693175 -0.0773402 0.08036957 -0.15605582 0.056953605
0.020565365 -0.03773742 -0.07633026 0.00908764 0.14148079 0.14590919 -0.08690825 -0.027403776
00000000: 7e76 e4bd 9fa0 a93d 820b 8c3c c045 e53b
00000010: 9179 72bd b7db 8a3c e9a8 21be b538 e43d
00000020: 79da a03d 67bd ad3d eb76 d43d 7fdc 953d
00000030: a0c1 593d 0590 07be 82c7 093e 461c 083e
00000040: e882 2b3e 4bc5 333e dd07 16be c6db d1bd
00000050: 9f1f f0bb 996c a6bd c03a debd 974b be3d
00000060: 8529 63bb 1def fa3d facf 10be 0367 1fbe
00000070: 5eb5 31be 2b39 e3bc 0d1d 8c3c 8266 df3d
00000080: 7177 05bd 5f05 fabd 2b93 febd 0151 4b3d
00000090: ef7e f9bd 3c90 ffbd a6e6 f63d 7f90 fa3d
000000a0: 491f 03bd 90ba 133e e302 843c 8e7e 90bd
000000b0: f544 0cbd 0891 92bc 0776 273e 0614 2abe
000000c0: 75fd 30be a814 68bd e803 15be 7b60 07be
000000d0: 44c9 b2bd 03bf 77bd a148 7dbd 6dd8 0e3d
000000e0: 549e 9dbd 38aa b03d fb71 b0b9 6d7c b1bc
000000f0: 490b d8bd dc20 bbbd b034 d33d 6367 293c
00000100: 5fa2 933d 9900 223e bd16 28be a9c2 133e
00000110: 4cfe 20be 555c b5bd 2849 36bb 900b 233e
00000120: 50f1 213e 2cb3 c6bd 6033 e1bd b14f b5bd
00000130: 2ec9 1d3e f3e6 03be 4a3a 02be 27f8 113e
00000140: 36ec 043d 79dc 0d3d b65e 2abe 038c b2bd
00000150: 85b3 863d f81a b93d d4d6 633d 5aef 3abd
00000160: 1334 84bb 93ef c43d 3e9c 0abe b747 0d3e
00000170: af25 273c dc1a 4c3c c6a5 f6bd 9c7b a23d
00000180: 74a4 243e 94c5 153e b8b6 4a3d 06cb f5bd
00000190: c201 61bd 09c8 1abe 52d6 24bd f26f 2bbe
000001a0: fb69 dcbd eda6 563d 7b22 a0bd 3810 083e
000001b0: 490d 45bd 6a44 133e 1c1b a9bc 8327 783d
000001c0: 224a 873c 196c 0f3e f928 a3bc 8a25 a9bc
000001d0: ffbd e63d bf22 0bbe 22c4 ec3c 8ca8 d6bd
000001e0: a99a 11be 4271 f0bd 74e6 143e b9e1 f2bd
000001f0: 67b6 013e a79a abbd 83c1 2e3e 8fc6 ba3a
00000200: e1a4 3b3d 7a90 f73d b489 323e 51cb 193e
00000210: 72ab 33be 161e 54bd aacc 28bd d2ce 1b3e
00000220: 4c96 1abe 27e0 35bd 73d5 69bc d2e4 773d
00000230: e7a3 a93d 0b22 f63d fca7 30bc 97d4 113e
00000240: cd51 20bc b131 c93d 3ecd 62bb c9f9 6c3c
00000250: 30be 9c3d ae28 4abd 07ec af3c 4c37 1dbe
00000260: e1f2 b7bc 7584 d3bd 70a8 3fbd 64b2 0f3e
00000270: db04 4fbc fd0f 3f3d be03 51bd ca82 813d
00000280: 3f4b a5bd 605d 1b3e ffb9 eb3c 47fc b83d
00000290: c38c 5a3c 823d 5dbd 8739 d93b b81a 043e
000002a0: 4301 e93d c461 c2bd 5248 90bd c9a5 aa3d
000002b0: 6580 b3bd a783 f03d 36fe efbb d6e9 6b3d
000002c0: aa6d c03d 3b17 51bd c3e5 223e 86a9 94bd
000002d0: 1c7e 843d d304 283e 277f e23d af22 993d
000002e0: e1ab d9bd 3606 e9bd fbfb 9abd 0376 323d
000002f0: eff0 33bd 396f abbd d85a 0abe 4690 e1bd
00000300: 54f0 d23a 91ca 02bc 158b 00be f953 843d
00000310: 1a15 06be 6e6c cabd 0319 20be a6e3 033e
00000320: d8bc b93d c858 0b3e 3537 c0bc 4dab 30be
00000330: 5cdc 1a3d a2e4 64bd a247 9fbd 153f 29bd
00000340: ad4f ef3d 14ed 303e b1fb 73bd 9a7a 90bd
00000350: b418 83bc 1656 e0bd 397a 97bc 5b19 6abd
00000360: d3ef 183e 9282 5bbd 542d 0e3d f59a f23b
00000370: 515f 34be b818 00be c6f3 c43d 6970 313e
00000380: a281 113e 62e0 043e 5583 c8bd cce7 cabc
00000390: 9c4b 0f3e 63ee f1bd 9e6f 1abe 6af1 17be
000003a0: 2173 073e 62d8 3c3d d614 02be 27c0 10be
000003b0: b3d7 55bd 4065 2dbe 962c 363d 1458 ad3d
000003c0: fb6a dd3d bfd9 e93d cceb c2bd 9161 2dbe
000003d0: 8a64 9ebd cd98 a43d 19cd 1fbe 2f48 693d
000003e0: b278 a83c 8e92 1abd 0a53 9cbd 53e4 143c
000003f0: 57e0 103e 3869 153e f4fc b1bd e27d e0bc

bias f4 [64]
0.06730167 -0.06001614 -0.16717553 0.13422479 -0.00750098 -0.10814877 -0.09812943 0.09075508
-0.09154249 -0.05008668 -0.0700504 -0.048167758 -0.08121468 -7.927822e-05 0.019450601 -0.06024519
-0.044591617 0.03222628 0.07505757 0.13673835 -0.1186494 -0.0054728733 0.05285282 -0.12463076
0.10983342 -0.09858544 0.07047084 0.10801346 -0.114195496 0.10725121 -0.13911392 -0.06838454
0.06291399 0.042123772 0.10281106 0.17355357 0.026901111 0.121413186 -0.08639326 0.053400245
0.108368695 -0.082537755 0.07595958 -0.113317974 0.04451489 0.17243163 -0.07651689 0.10107762
0.12241225 0.11477057 0.013766467 0.16387649 0.0771215 -0.007491518 -0.11082482 -0.07265008
-0.17552908 -0.006329824 0.17111494 -0.03872227 -0.13980253 0.12222603 -0.07580258 0.058059115
00000000: 75d5 893d 7cd3 75bd 1030 2bbe 3972 093e
00000010: c8ca f5bb 1a7d ddbd 15f8 c8bd cddd b93d
00000020: a17a bbbd b127 4dbd 9676 8fbd 8e4b 45bd
00000030: e253 a6bd 2c42 a6b8 de56 9f3c a9c3 76bd
00000040: b3a5 36bd b4ff 033d c9b7 993d 2305 0c3e
00000050: 75fe f2bd ca55 b3bb 337c 583d 693e ffbd
00000060: 58f0 e03d 2ae7 c9bd 0453 903d 2936 dd3d
00000070: 54df e9bd 86a6 db3d e173 0ebe 320d 8cbd
00000080: 0dd9 803d fa89 2c3d 9b8e d23d 07b8 313e
00000090: b85f dc3c 7aa7 f83d f3ee b0bd 37ba 5a3d
000000a0: 68f0 dd3d 8e09 a9bd b290 9b3d 4113 e8bd
000000b0: 3f55 363d eb91 303e e3b4 9cbd c901 cf3d
000000c0: 46b3 fa3d d50c eb3d bf8c 613c 3dcf 273e
000000d0: e1f1 9d3d 687b f5bb 20f8 e2bd 91c9 94bd
000000e0: e5bd 33be 6a6a cfbb c138 2f3e 3e9b 1ebd
000000f0: 6528 0fbe a451 fa3d 623e 9bbd 65cf 6d3d

weight f4 [64]
1.0 1.0 1.0 1.0 1.0 1.0 1.0 1.0
1.0 1.0 1.0 1.0 1.0 1.0 1.0 1.0
1.0 1.0 1.0 1.0 1.0 1.0 1.0 1.0
1.0 1.0 1.0 1.0 1.0 1.0 1.0 1.0
1.0 1.0 1.0 1.0 1.0 1.0 1.0 1.0
1.0 1.0 1.0 1.0 1.0 1.0 1.0 1.0
1.0 1.0 1.0 1.0 1.0 1.0 1.0 1.0
1.0 1.0 1.0 1.0 1.0 1.0 1.0 1.0
00000000: 0000 803f 0000 803f 0000 803f 0000 803f
00000010: 0000 803f 0000 803f 0000 803f 0000 803f
00000020: 0000 803f 0000 803f 0000 803f 0000 803f
00000030: 0000 803f 0000 803f 0000 803f 0000 803f
00000040: 0000 803f 0000 803f 0000 803f 0000 803f
00000050: 0000 803f 0000 803f 0000 803f 0000 803f
00000060: 0000 803f 0000 803f 0000 803f 0000 803f
00000070: 0000 803f 0000 803f 0000 803f 0000 803f
00000080: 0000 803f 0000 803f 0000 803f 0000 803f
00000090: 0000 803f 0000 803f 0000 803f 0000 803f
000000a0: 0000 803f 0000 803f 0000 803f 0000 803f
000000b0: 0000 803f 0000 803f 0000 803f 0000 803f
000000c0: 0000 803f 0000 803f 0000 803f 0000 803f
000000d0: 0000 803f 0000 803f 0000 803f 0000 803f
000000e0: 0000 803f 0000 803f 0000 803f 0000 803f
000000f0: 0000 803f 0000 803f 0000 803f 0000 803f

bias f4 [64]
0.0 0.0 0.0 0.0 0.0 0.0 0.0 0.0
0.0 0.0 0.0 0.0 0.0 0.0 0.0 0.0
0.0 0.0 0.0 0.0 0.0 0.0 0.0 0.0
0.0 0.0 0.0 0.0 0.0 0.0 0.0 0.0
0.0 0.0 0.0 0.0 0.0 0.0 0.0 0.0
0.0 0.0 0.0 0.0 0.0 0.0 0.0 0.0
0.0 0.0 0.0 0.0 0.0 0.0 0.0 0.0
0.0 0.0 0.0 0.0 0.0 0.0 0.0 0.0
00000000: 0000 0000 0000 0000 0000 0000 0000 0000
00000010: 0000 0000 0000 0000 0000 0000 0000 0000
00000020: 0000 0000 0000 0000 0000 0000 0000 0000
00000030: 0000 0000 0000 0000 0000 0000 0000 0000
00000040: 0000 0000 0000 0000 0000 0000 0000 0000
00000050: 0000 0000 0000 0000 0000 0000 0000 0000
00000060: 0000 0000 0000 0000 0000 0000 0000 0000
00000070: 0000 0000 0000 0000 0000 0000 0000 0000
00000080: 0000 0000 0000 0000 0000 0000 0000 0000
00000090: 0000 0000 0000 0000 0000 0000 0000 0000
000000a0: 0000 0000 0000 0000 0000 0000 0000 0000
000000b0: 0000 0000 0000 0000 0000 0000 0000 0000
000000c0: 0000 0000 0000 0000 0000 0000 0000 0000
000000d0: 0000 0000 0000 0000 0000 0000 0000 0000
000000e0: 0000 0000 0000 0000 0000 0000 0000 0000
000000f0: 0000 0000 0000 0000 0000 0000 0000 0000

running_mean f4 [64]
0.0 0.0 0.0 0.0 0.0 0.0 0.0 0.0
0.0 0.0 0.0 0.0 0.0 0.0 0.0 0.0
0.0 0.0 0.0 0.0 0.0 0.0 0.0 0.0
0.0 0.0 0.0 0.0 0.0 0.0 0.0 0.0
0.0 0.0 0.0 0.0 0.0 0.0 0.0 0.0
0.0 0.0 0.0 0.0 0.0 0.0 0.0 0.0
0.0 0.0 0.0 0.0 0.0 0.0 0.0 0.0
0.0 0.0 0.0 0.0 0.0 0.0 0.0 0.0
00000000: 0000 0000 0000 0000 0000 0000 0000 0000
00000010: 0000 0000 0000 0000 0000 0000 0000 0000
00000020: 0000 0000 0000 0000 0000 0000 0000 0000
00000030: 0000 0000 0000 0000 0000 0000 0000 0000
00000040: 0000 0000 0000 0000 0000 0000 0000 0000
00000050: 0000 0000 0000 0000 0000 0000 0000 0000
00000060: 0000 0000 0000 0000 0000 0000 0000 0000
00000070: 0000 0000 0000 0000 0000 0000 0000 0000
00000080: 0000 0000 0000 0000 0000 0000 0000 0000
00000090: 0000 0000 0000 0000 0000 0000 0000 0000
000000a0: 0000 0000 0000 0000 0000 0000 0000 0000
000000b0: 0000 0000 0000 0000 0000 0000 0000 0000
000000c0: 0000 0000 0000 0000 0000 0000 0000 0000
000000d0: 0000 0000 0000 0000 0000 0000 0000 0000
000000e0: 0000 0000 0000 0000 0000 0000 0000 0000
000000f0: 0000 0000 0000 0000 0000 0000 0000 0000

running_var f4 [64]
1.0 1.0 1.0 1.0 1.0 1.0 1.0 1.0
1.0 1.0 1.0 1.0 1.0 1.0 1.0 1.0
1.0 1.0 1.0 1.0 1.0 1.0 1.0 1.0
1.0 1.0 1.0 1.0 1.0 1.0 1.0 1.0
1.0 1.0 1.0 1.0 1.0 1.0 1.0 1.0
1.0 1.0 1.0 1.0 1.0 1.0 1.0 1.0
1.0 1.0 1.0 1.0 1.0 1.0 1.0 1.0
1.0 1.0 1.0 1.0 1.0 1.0 1.0 1.0
00000000: 0000 803f 0000 803f 0000 803f 0000 803f
00000010: 0000 803f 0000 803f 0000 803f 0000 803f
00000020: 0000 803f 0000 803f 0000 803f 0000 803f
00000030: 0000 803f 0000 803f 0000 803f 0000 803f
00000040: 0000 803f 0000 803f 0000 803f 0000 803f
00000050: 0000 803f 0000 803f 0000 803f 0000 803f
00000060: 0000 803f 0000 803f 0000 803f 0000 803f
00000070: 0000 803f 0000 803f 0000 803f 0000 803f
00000080: 0000 803f 0000 803f 0000 803f 0000 803f
00000090: 0000 803f 0000 803f 0000 803f 0000 803f
000000a0: 0000 803f 0000 803f 0000 803f 0000 803f
000000b0: 0000 803f 0000 803f 0000 803f 0000 803f
000000c0: 0000 803f 0000 803f 0000 803f 0000 803f
000000d0: 0000 803f 0000 803f 0000 803f 0000 803f
000000e0: 0000 803f 0000 803f 0000 803f 0000 803f
000000f0: 0000 803f 0000 803f 0000 803f 0000 803f

weight f4 [32, 16]
-0.19580302 0.22772828 0.095489234 -0.16652775 -0.21947744 0.13402203 -0.18395245 0.22322989
-0.042167753 0.24320471 -0.10997176 -0.15219775 0.11807525 -0.21174595 0.15952682 -0.11013603
-0.16987121 -0.15507722 -0.234546 0.1244086 -0.0731394 -0.05355397 -0.17087355 -0.2247012
-0.0076806843 -0.12320694 -0.23805305 0.20034754 0.14990616 0.1864838 0.12458858 0.010965705
-0.21616372 0.18099359 -0.01836592 -0.19563177 0.2104649 0.016777992 -0.19211274 0.12125653
0.14762527 0.23168874 -0.20937073 -0.07319483 0.24790326 -0.24860185 -0.08008468 -0.21245953
-0.09633738 0.050707877 -0.084406674 -0.13251969 -0.019283056 -0.08964172 -0.024252445 -0.21401906
0.13268134 -0.16247028 -0.0068389475 -0.20356083 0.22275883 0.07689965 -0.046420664 0.24023649
0.11881992 0.05460745 -0.2286188 0.15530393 0.17038852 0.081656724 0.0724335 -0.17171684
0.19813609 0.11248353 -0.10141876 0.027728826 0.099776894 -0.22054645 0.21197456 0.18458301
-0.19466168 0.07717782 0.13987696 0.01988402 -0.07036087 -0.13283935 -0.17180067 -0.14984432
-0.13055864 0.016152084 0.10143414 0.089434475 0.06380811 -0.20682356 -0.17028591 -0.097634405
0.10079077 -0.15967745 0.21478257 -0.07058346 -0.0013365448 -0.13974264 -0.010264128 -0.08082083
-0.2310811 -0.028867334 0.14426619 -0.12509075 -0.15414247 0.23935345 0.1862208 -0.11681715
0.13642994 0.070488095 0.08526358 0.06372875 0.041935325 0.040495783 0.01874432 0.11594427
-0.17119029 -0.13528141 -0.10746083 -0.20265707 0.054552615 -0.121441305 0.08598757 -0.0552288
0.053420335 -0.007723987 -0.05763185 -0.13491029 -0.038782954 -0.047056586 -0.20293131 0.0037374198
-0.24024266 -0.0053747892 -0.14775193 0.24199665 -0.23035473 -0.03514886 -0.18372092 -0.017489731
-0.034650028 -0.20470601 -0.19379139 -0.23137254 0.24509773 -0.020546943 0.07894778 -0.16149274
-0.06285897 0.23823598 -0.13544226 -0.026186347 0.1048125 0.19576785 -0.07551068 0.17270398
0.2343412 0.13864318 0.10761759 -0.091385126 0.12870666 0.15135759 0.2056801 0.21925014
-0.14180487 0.21700269 -0.030990064 -0.03703642 -0.070543766 -0.06882164 -0.16749632 0.23045835
-0.1747866 0.21809596 0.21289915 0.07810408 -0.122091174 -0.22770739 0.06151113 0.13769159
-0.10322213 0.20521992 0.014998406 -0.1439549 -0.014682382 0.20760289 -0.14242971 -0.23153767
0.10228804 0.045179218 -0.12823585 0.032904893 -0.138901 -0.016605288 0.17992225 0.0008393526
0.1637711 -0.17944655 -0.19595376 -0.14395007 0.19775915 -0.02172774 0.09976056 0.13287708
0.15984294 -0.15898961 0.05288768 0.010963321 0.1315864 0.051805407 0.2015177 0.16774726
-0.20979416 -0.03445664 -0.010538936 0.049959183 -0.0024875402 -0.06133905 0.23432311 0.044594735
0.020987272 0.18683657 0.046453893 -0.10910511 -0.0033863485 -0.21356753 -0.008227974 -0.1240713
-0.22806016 0.123134196 0.15241867 -0.018203378 0.09323558 -0.08613539 -0.085221946 -0.015522003
0.14310798 0.20616147 -0.20313767 -0.16081315 0.07756865 0.060982257 0.105335295 -0.015594274
0.057984173 0.16967562 -0.028169483 0.16183406 0.23513019 -0.23356086 0.15377265 0.028122514
00000000: 9680 48be 9a31 693e dc8f c33d 4086 2abe
00000010: b2be 60be 123d 093e 085e 3cbe 6096 643e
00000020: 18b8 2cbd a80a 793e e038 e1bd bad9 1bbe
00000030: 70d1 f13d eed3 58be 005b 233e 008f e1bd
00000040: b8f2 2dbe 90cc 1ebe d42c 70be f0c9 fe3d
00000050: 1cca 95bd 685b 5bbd 7af9 2ebe 1218 66be
00000060: 40ae fbbb ec53 fcbd 2ec4 73be e827 4d3e
00000070: 0081 193e 9cf5 3e3e 4c28 ff3d 80a9 333c
00000080: 065a 5dbe 6256 393e 2074 96bc b253 48be
00000090: 1c84 573e 0072 893c 34b9 44be 5855 f83d
000000a0: 142b 173e d03f 6d3e 4865 56be 2ce7 95bd
000000b0: 5ada 7d3e 7c91 7ebe 7003 a4bd fe8e 59be
000000c0: 884c c5bd 10b3 4f3d 68dd acbd 3eb3 07be
000000d0: 80f7 9dbc 1496 b7bd 10ad c6bc d027 5bbe
000000e0: 9edd 073e 9c5e 26be 4019 e0bb 4072 50be
000000f0: e41a 643e 907d 9d3d 9823 3ebd 8e00 763e
00000100: dc57 f33d 10ac 5f3d 0c1b 6abe fe07 1f3e
00000110: 547a 2e3e a43b a73d 0458 943d 8ad6 2fbe
00000120: 30e4 4a3e c45d e63d a4b4 cfbd 9027 e33c
00000130: d457 cc3d eed6 61be dc0f 593e 5403 3d3e
00000140: 6455 47be 680f 9e3d e83b 0f3e d0e3 a23c
00000150: 5c19 90bd 0a07 08be 84ec 2fbe ca70 19be
00000160: 2ab1 05be 6051 843c b4bc cf3d 6c29 b73d
00000170: d4ad 823d 8ec9 53be 6e5f 2ebe 8cf4 c7bd
00000180: 646b ce3d 7c82 23be f6ef 5b3e 108e 90bd
00000190: 002f afba b218 0fbe e02a 28bc 6485 a5bd
000001a0: 86a0 6cbe 307b ecbc 84ba 133e ca17 00be
000001b0: 86d7 1dbe 1219 753e aab0 3e3e d43d efbd
000001c0: 4ab4 0b3e 105c 903d ac9e ae3d 3884 823d
000001d0: 60c4 2b3d e8de 253d b08d 993c 3074 ed3d
000001e0: 824c 2fbe 3687 0abe 6c14 dcbd 5685 4fbe
000001f0: 9072 5f3d 38b6 f8bd 401a b03d 9837 62bd
00000200: 48cf 5a3d 8019 fdbb 600f 6cbd ec25 0abe
00000210: e0da 1ebd 68be 40bd 3acd 4fbe 80ef 743b
00000220: 2c02 76be 001f b0bb 484c 17be f8cd 773e
00000230: 1ce2 6bbe 40f8 0fbd 5621 3cbe a046 8fbc
00000240: 30ed 0dbd 749e 51be 4071 46be ecec 6cbe
00000250: e6fa 7a3e 1052 a8bc 60af a13d 5a5e 25be
00000260: 34bc 80bd 22f4 733e 60b1 0abe c084 d6bc
00000270: f0a7 d63d 5e77 483e 58a5 9abd 50d9 303e
00000280: 24f7 6f3e 7af8 0d3e 9c66 dc3d 2028 bbbd
00000290: aecb 033e 7cfd 1a3e ce9d 523e 1c83 603e
000002a0: 4c35 11be f435 5e3e e0de fdbc 80b3 17bd
000002b0: 4079 90bd 5cf2 8cbd 2884 2bbe 46fd 6b3e
000002c0: 42fb 32be 8c54 5f3e 3c02 5a3e 08f5 9f3d
000002d0: f00a fabd 202c 69be 18f3 7b3d 06ff 0c3e
000002e0: 2066 d3bd 2c25 523e e0bb 753c ea68 13be
000002f0: 608e 70bc da95 543e 18d9 11be 3618 6dbe
00000300: 647c d13d d80d 393d 4250 03be 48c7 063d
00000310: 103c 0ebe d007 88bc 8a3d 383e 0008 5c3a
00000320: 9cb3 273e d6c0 37be 1aa8 48be a667 13be
00000330: 6081 4a3e 60fe b1bc 444f cc3d ee10 083e
00000340: dead 233e 2cce 22be c0a0 583d 809f 333c
00000350: 96be 063e e831 543d a85a 4e3e f0c5 2b3e
00000360: 48d4 56be 6822 0dbd 80ab 2cbc 00a2 4c3d
00000370: 0006 23bb a83e 7bbd 66f2 6f3e f8a8 363d
00000380: 80ed ab3c 1652 3f3e 7046 3e3d 8072 dfbd
00000390: 80ed 5dbb 72b1 5abe a0ce 06bc 1819 febd
000003a0: 9a88 69be c82d fc3d a413 1c3e 401f 95bc
000003b0: 4cf2 be3d c067 b0bd d888 aebd 0050 7ebc
000003c0: e68a 123e fe1b 533e 5203 50be 34ac 24be
000003d0: 50dc 9e3d 88c8 793d 08ba d73d 207f 7fbc
000003e0: d080 6d3d 72bf 2d3e b0c3 e6bc d4b7 253e
000003f0: f8c5 703e 942a 6fbe 9476 1d3e 3061 e63c

bias f4 [32]
0.2209925 -0.11387709 0.16532499 -0.21634686 0.234929 -0.18368351 0.13844767 0.11169961
0.008264273 -0.1447494 0.13919899 -0.24184176 -0.110666364 -0.07360804 0.06836647 0.07165825
-0.12735254 0.12570971 -0.005370617 -0.1925289 0.21177346 -0.1271182 -0.16275227 0.022931218
0.24321055 0.1917845 -0.23514608 0.044228047 0.12518835 -0.068577915 0.24546266 -0.11614591
00000000: dc4b 623e 6438 e9bd f44a 293e 088a 5dbe
00000010: 3a91 703e 8817 3cbe 3ac5 0d3e c4c2 e43d
00000020: e066 073c 3039 14be 2e8a 0e3e 5ea5 77be
00000030: 0ca5 e2bd d0bf 96bd b803 8c3d 90c1 923d
00000040: b468 02be 0cba 003e 00fc afbb 4c26 45be
00000050: 24db 583e 462b 02be 88a8 26be 40da bb3c
00000060: 300c 793e 2863 443e 22ca 70be 7828 353d
00000070: 6031 003e 9472 8cbd 905a 7b3e e8dd edbd

weight f4 [32]
1.0 1.0 1.0 1.0 1.0 1.0 1.0 1.0
1.0 1.0 1.0 1.0 1.0 1.0 1.0 1.0
1.0 1.0 1.0 1.0 1.0 1.0 1.0 1.0
1.0 1.0 1.0 1.0 1.0 1.0 1.0 1.0
00000000: 0000 803f 0000 803f 0000 803f 0000 803f
00000010: 0000 803f 0000 803f 0000 803f 0000 803f
00000020: 0000 803f 0000 803f 0000 803f 0000 803f
00000030: 0000 803f 0000 803f 0000 803f 0000 803f
00000040: 0000 803f 0000 803f 0000 803f 0000 803f
00000050: 0000 803f 0000 803f 0000 803f 0000 803f
00000060: 0000 803f 0000 803f 0000 803f 0000 803f
00000070: 0000 803f 0000 803f 0000 803f 0000 803f

bias f4 [32]
0.0 0.0 0.0 0.0 0.0 0.0 0.0 0.0
0.0 0.0 0.0 0.0 0.0 0.0 0.0 0.0
0.0 0.0 0.0 0.0 0.0 0.0 0.0 0.0
0.0 0.0 0.0 0.0 0.0 0.0 0.0 0.0
00000000: 0000 0000 0000 0000 0000 0000 0000 0000
00000010: 0000 0000 0000 0000 0000 0000 0000 0000
00000020: 0000 0000 0000 0000 0000 0000 0000 0000
00000030: 0000 0000 0000 0000 0000 0000 0000 0000
00000040: 0000 0000 0000 0000 0000 0000 0000 0000
00000050: 0000 0000 0000 0000 0000 0000 0000 0000
00000060: 0000 0000 0000 0000 0000 0000 0000 0000
00000070: 0000 0000 0000 0000 0000 0000 0000 0000

running_mean f4 [32]
0.0 0.0 0.0 0.0 0.0 0.0 0.0 0.0
0.0 0.0 0.0 0.0 0.0 0.0 0.0 0.0
0.0 0.0 0.0 0.0 0.0 0.0 0.0 0.0
0.0 0.0 0.0 0.0 0.0 0.0 0.0 0.0
00000000: 0000 0000 0000 0000 0000 0000 0000 0000
00000010: 0000 0000 0000 0000 0000 0000 0000 0000
00000020: 0000 0000 0000 0000 0000 0000 0000 0000
00000030: 0000 0000 0000 0000 0000 0000 0000 0000
00000040: 0000 0000 0000 0000 0000 0000 0000 0000
00000050: 0000 0000 0000 0000 0000 0000 0000 0000
00000060: 0000 0000 0000 0000 0000 0000 0000 0000
00000070: 0000 0000 0000 0000 0000 0000 0000 0000

running_var f4 [32]
1.0 1.0 1.0 1.0 1.0 1.0 1.0 1.0
1.0 1.0 1.0 1.0 1.0 1.0 1.0 1.0
1.0 1.0 1.0 1.0 1.0 1.0 1.0 1.0
1.0 1.0 1.0 1.0 1.0 1.0 1.0 1.0
00000000: 0000 803f 0000 803f 0000 803f 0000 803f
00000010: 0000 803f 0000 803f 0000 803f 0000 803f
00000020: 0000 803f 0000 803f 0000 803f 0000 803f
00000030: 0000 803f 0000 803f 0000 803f 0000 803f
00000040: 0000 803f 0000 803f 0000 803f 0000 803f
00000050: 0000 803f 0000 803f 0000 803f 0000 803f
00000060: 0000 803f 0000 803f 0000 803f 0000 803f
00000070: 0000 803f 0000 803f 0000 803f 0000 803f

weight f4 [64, 32]
-0.04123131 -0.031535957 -0.06845396 -0.11105827 -0.08189314 0.09518484 -0.09453483 0.15660089
-0.037937813 0.05445023 -0.15509473 -0.1606451 0.15051141 -0.045606576 0.16233 0.028244035
0.06801376 -0.10925537 0.15121269 0.13715093 -0.0053072996 0.107891336 0.12298884 0.030405305
-0.1729801 -0.14997159 -0.08291722 -0.11499974 0.030991083 0.008403407 -0.09820544 0.053783868
-0.11252947 0.08300828 -0.02907119 -0.15476282 -0.16288643 -0.0028998929 0.014721261 -0.03848669
0.14299844 -0.030915914 0.029528398 0.021061474 -0.118231304 -0.0048443587 0.13935708 0.08080938
0.08207028 0.042558033 0.010452165 0.015037784 0.123029724 0.1490492 -0.14190081 0.04791241
0.066287026 0.011163056 -0.06906927 0.07685962 -0.008790842 0.12486857 0.16158362 -0.015329293
-0.0075390805 0.06950938 0.0479059 0.058728978 0.17120518 -0.103677705 -0.12126995 -0.12881938
0.12050612 -0.10397596 0.1673608 0.17641874 -0.02069446 -0.17298509 -0.11994658 0.08850566
0.11597967 -0.07776338 0.15522511 0.1645666 0.16959466 0.113687664 0.028416859 -0.03685508
-0.0043663923 -0.0035346875 0.10075632 -0.14141616 0.096635744 -0.12994337 0.1027011 -0.06195749
-0.042274088 0.15188964 0.14246804 -0.0113712195 0.174289 0.16197485 0.086613774 -0.089266814
-0.09699815 0.12992425 -0.086759284 -0.12308901 -0.09135034 0.023993379 0.15169331 -0.140413
-0.07515773 0.16141649 -0.17236261 -0.039949458 -0.02794865 -0.0963458 0.05819957 -0.071025886
0.11742698 -0.11928527 -0.030839838 -0.15042056 -0.092989326 -0.069896266 -0.1273285 -0.12884848
-0.08232508 -0.12014402 -0.12676394 -0.07047845 -0.013670351 0.16643533 -0.03158373 -0.07878053
-0.15277061 -0.058868315 -0.074886516 0.0443871 -0.092073396 -0.043409843 0.107181944 -0.15890434
-0.14580761 0.016540362 -0.123491295 -0.15607251 -0.141784 -0.09434022 0.09077363 -0.069653735
0.07972909 -0.119690575 0.118074544 -0.0048807524 -0.02957242 -0.13085671 0.15009749 0.052733906
0.08832047 -0.030176869 0.14492898 -0.024622126 0.076075695 0.05969943 -0.013130134 0.007386593
0.106175035 0.02373426 -0.13362278 0.1455506 0.035746913 -0.022058817 -0.033165712 -0.0027312632
0.06968446 0.16559482 -0.09405453 -0.008539056 0.0696809 -0.16715991 -0.16934149 -0.09479106
0.036184985 0.16466174 0.100383505 0.030140307 -0.050992627 -0.118561275 0.11060235 0.14567854
0.098988615 -0.044004682 -0.11270566 0.050392922 0.07519904 -0.16360681 -0.14810714 0.09461734
-0.015851345 0.044487305 0.13733023 0.13450907 0.0896827 0.114218086 -0.14746091 -0.016778007
-0.06219583 -0.17502204 -0.17563942 -0.033510137 -0.09448082 -0.069138214 -0.09579852 -0.11618169
0.11665324 -0.17283379 0.08571742 -0.043808825 -0.10059374 0.052003816 0.14435725 0.12267967
-0.15825202 0.03419294 0.16286433 -0.14041635 -0.13767949 0.1265149 -0.09849244 0.12206366
0.12329409 0.15716507 0.096273914 -0.17670915 0.035971787 -0.11916863 0.031808183 -0.038984086
0.056810644 0.17123261 -0.08861189 -0.1727106 0.12034503 0.06462364 0.17546068 0.03706853
0.027339164 0.077173136 -0.037252523 -0.024542784 -0.044598974 0.014173774 0.026412712 -0.0030381135
00000000: 2ae2 28bd d92b 01bd 9731 8cbd 8572 e3bd
00000010: 97b7 a7bd 45f0 c23d 7a9b c1bd fc5b 203e
00000020: ae64 1bbd 3407 5f3d 27d1 1ebe 2680 24be
00000030: aa1f 1a3e f6cd 3abd d639 263e 0960 e73c
00000040: cc4a 8b3d 48c1 dfbd 80d7 1a3e 4b71 0c3e
00000050: dbe8 adbb 22f6 dc3d 93e1 fb3d 8c14 f93c
00000060: b221 31be 2792 19be 81d0 a9bd fc84 ebbd
00000070: 03e1 fd3c 72ae 093c ef1f c9bd 794c 5c3d
00000080: da75 e6bd 3f00 aa3d b426 eebc 257a 1ebe
00000090: b3cb 26be 210c 3ebb 7231 713c 38a4 1dbd
000000a0: 2f6e 123e 5f43 fdbc 8ae5 f13c 1d89 ac3c
000000b0: 4123 f2bd 6dbd 9ebb 9fb3 0e3e 637f a53d
000000c0: 7714 a83d 5551 2e3d 8f3f 2b3c 0a61 763c
000000d0: 02f7 fb3d 5aa0 183e 724e 11be ce3f 443d
000000e0: 7ec1 873d 40e5 363c 3074 8dbd 9468 9d3d
000000f0: 7707 10bc 18bb ff3d 2d76 253e b727 7bbc
00000100: 640a f7bb ef5a 8e3d fa38 443d cc8d 703d
00000110: 6950 2f3e fa54 d4bd 615c f8bd 3ae9 03be
00000120: eacb f63d 59f1 d4bd a160 2b3e 1da7 343e
00000130: 6e87 a9bc 0123 31be 8da6 f5bd 7542 b53d
00000140: c086 ed3d 6842 9fbd 55f3 1e3e 2684 283e
00000150: 39aa 2d3e 14d5 e83d 79ca e83c 5af5 16bd
00000160: f413 8fbb 37a6 67bb 5459 ce3d 66cf 10be
00000170: f6e8 c53d e00f 05be f454 d23d 23c7 7dbd
00000180: 9827 2dbd f588 1b3e 24e3 113e 5a4e 3abc
00000190: d178 323e bcdc 253e 9062 b13d 85d1 b6bd
000001a0: f7a6 c6bd dd0a 053e daae b1bd 1716 fcbd
000001b0: e315 bbbd c38d c43c 7e55 1b3e 6dc8 0fbe
000001c0: 4cec 99bd 5d4a 253e d37f 30be 0ba2 23bd
000001d0: 91f4 e4bc f250 c5bd ac62 6e3d 0576 91bd
000001e0: 8e7d f03d d64b f4bd d4a3 fcbc d907 1abe
000001f0: 3071 bebd c625 8fbd 6762 02be dbf0 03be
00000200: 0d9a a8bd 110e f6bd 68ce 01be 0157 90bd
00000210: 9cf9 5fbc 066e 2a3e f15d 01bd b057 a1bd
00000220: e66f 1cbe e71f 71bd 1a5e 99bd 3fcf 353d
00000230: fa90 bcbd 85ce 31bd 3582 db3d d2b7 22be
00000240: 974e 15be a77f 873c 01e9 fcbd 79d1 1fbe
00000250: d32f 11be 7235 c1bd 86e7 b93d 9ea6 8ebd
00000260: 0149 a33d 5520 f5bd 11d1 f13d b8ee 9fbb
00000270: dc41 f2bc 4dff 05be 28b3 193e 82ff 573d
00000280: 5de1 b43d 7b35 f7bc 4368 143e 57b4 c9bc
00000290: 93cd 9b3d 6487 743d c61f 57bc 3c0b f23b
000002a0: 4c72 d93d 5a6e c23c 69d4 08be 370b 153e
000002b0: 5b6b 123d b1b4 b4bc c5d8 07bd fefe 32bb
000002c0: bab6 8e3d b091 293e a99f c0bd 66e7 0bbc
000002d0: dcb4 8e3d f82b 2bbe db67 2dbe d121 c2bd
000002e0: b536 143d 169d 283e de95 cd3d cee8 f63c
000002f0: a5dd 50bd 41d0 f2bd 7c83 e23d c12c 153e
00000300: 8bba ca3d 413e 34bd 3ad2 e6bd cf68 4e3d
00000310: f401 9a3d 8b88 27be 66a9 17be bcc6 c13d
00000320: aeda 81bc 5238 363d 4ca0 0c3e bfbc 093e
00000330: 90ab b73d 2ceb e93d feff 16be 0872 89bc
00000340: 0ec1 7ebd fa38 33be d2da 33be ed41 09bd
00000350: 297f c1bd 5698 8dbd 0432 c4bd aaf0 edbd
00000360: e5e7 ee3d 57fb 30be 9d8c af3d e270 33bd
00000370: 1704 cebd f401 553d 63d2 133e 7b3f fb3d
00000380: d10c 22be e50d 0c3d e8c5 263e 4ec9 0fbe
00000390: dafb 0cbe 1f8d 013e 68b6 c9bd 83fc f93d
000003a0: 9d81 fc3d e1ef 203e 422b c53d 3ef3 34be
000003b0: 2757 133d af0e f4bd 4c49 023d c7ad 1fbd
000003c0: 47b2 683d 9a57 2f3e 277a b5bd 0cdb 30be
000003d0: 7577 f63d 6659 843d f7ab 333e 2cd5 173d
000003e0: 62f6 df3c f30c 9e3d 1a96 18bd f30d c9bc
000003f0: 6aad 36bd 1e39 683c 795f d83c 161b 47bb
